notebooks/models/patchTST.pt (torch, 504046 bytes, 69 tensors)

weight f4 [1, 11, 1]
0	0x3f800000	1.0
1	0x3f800000	1.0
2	0x3f800000	1.0
3	0x3f800000	1.0
4	0x3f800000	1.0
5	0x3f800000	1.0
6	0x3f800000	1.0
7	0x3f800000	1.0
8	0x3f800000	1.0
9	0x3f800000	1.0
10	0x3f800000	1.0

bias f4 [1, 11, 1]
0	0x00000000	0.0
1	0x00000000	0.0
2	0x00000000	0.0
3	0x00000000	0.0
4	0x00000000	0.0
5	0x00000000	0.0
6	0x00000000	0.0
7	0x00000000	0.0
8	0x00000000	0.0
9	0x00000000	0.0
10	0x00000000	0.0

sub f4 [2, 11, 1]
0	0xbf88e0af	-1.0693568
1	0x3e95609a	0.29175264
2	0x3f008342	0.50200284
3	0x3e04a7c0	0.12954617
4	0xbf28bacf	-0.6591005
5	0x3f0087ea	0.5020739
6	0x3e047658	0.1293577
7	0xbf28a20e	-0.65872276
8	0x3f009dba	0.5024067
9	0x3e08b65d	0.13350816
10	0xbf28a62c	-0.6587856
11	0xbf87a628	-1.0597582
12	0x3e8f618a	0.28004104
13	0x3efce544	0.49393666
14	0x3e0a973a	0.13534251
15	0xbf279cc0	-0.65473557
16	0x3efcee74	0.49400675
17	0x3e0a65a0	0.1351533
18	0xbf278411	-0.6543589
19	0x3efd19fe	0.49433893
20	0x3e0ea426	0.13929805
21	0xbf278831	-0.65442187

std f4 [2, 11, 1]
0	0x3e938ab5	0.28816763
1	0x3f8c69a6	1.0969741
2	0x3f94655d	1.1593434
3	0x3f6aa9c0	0.9166527
4	0x3ee31d98	0.44358516
5	0x3f9469aa	1.1594746
6	0x3f6aa1fa	0.91653407
7	0x3ee30f9e	0.44347852
8	0x3f946ce5	1.1595732
9	0x3f6a66e1	0.9156323
10	0x3ee30e09	0.44346645
11	0x3e938ab5	0.28816763
12	0x3f8c80b6	1.097678
13	0x3f947a8f	1.1599902
14	0x3f677f8a	0.90428984
15	0x3ee40163	0.44532308
16	0x3f947edd	1.1601216
17	0x3f6777de	0.9041728
18	0x3ee3f35b	0.44521603
19	0x3f948218	1.1602201
20	0x3f673d91	0.9032832
21	0x3ee3f1c4	0.4452039

W_pos f4 [42, 16]
0	0xbc1cf624	-0.009580169
1	0x3c6b2557	0.014352164
2	0x3c64b64b	0.013959478
3	0x3c93075f	0.01794785
4	0xbc7c6643	-0.0154052405
5	0x3baa23bb	0.0051922477
6	0xbb90a5af	-0.0044142823
7	0x3c15be90	0.009139672
8	0x3bdcb994	0.00673599
9	0x3b05534b	0.0020343836
10	0xb595eaae	-1.1169666e-06
11	0x3b8ac689	0.004235093
12	0xbcf268e1	-0.029591026
13	0xbcbdaf8f	-0.023155002
14	0x3c9748ea	0.018467385
15	0xbb8d6c54	-0.0043158922
16	0x3b4d3498	0.0031311866
17	0xbb722cbe	-0.0036952938
18	0x3c6b6d73	0.014369356
19	0x3c9c92e2	0.019113008
20	0xbabb4e75	-0.001429035
21	0x3bb379bb	0.005477158
22	0xbb6e89df	-0.0036398096
23	0x3c41a8a9	0.011819997
24	0x3b65c0c9	0.0035057536
25	0xbb2e0243	-0.002655164
26	0x3c4c0122	0.012451442
27	0x3c8174c1	0.015802743
28	0x3a6c1a0e	0.0009006568
29	0x3b881eeb	0.0041540763
30	0x3caf63aa	0.021409828
31	0x3b4c36d5	0.0031160612
32	0x3b39b662	0.0028337468
33	0x3b04cd7a	0.0020264075
34	0x3b459b99	0.0030152558
35	0xbbb54b53	-0.005532661
36	0xbbef9cd7	-0.007312398
37	0x3d168213	0.036745142
38	0x3b4a3c08	0.0030858535
39	0x3be5ec7e	0.0070167175
40	0xbd2ee8cb	-0.042702477
41	0xbc389df6	-0.01126813
42	0x3c665ce6	0.014060235
43	0xbc975688	-0.018473879
44	0x3c6d6217	0.0144887185
45	0xbc894347	-0.016755713
46	0xb7b534e2	-2.1601507e-05
47	0xbc764fe6	-0.015033698
48	0xbcde4799	-0.02713375
49	0xbcd20ca6	-0.025640797
50	0x3c9b337a	0.018945444
51	0x3c299e64	0.010352705
52	0x3d06a953	0.032876324
53	0x3c915613	0.017741239
54	0x3bc7b98f	0.0060951184
55	0x3ccebc82	0.025236372
56	0xbd38c5b5	-0.045110423
57	0xbccce87f	-0.025013207
58	0xbca8394e	-0.020535138
59	0x3b0d38f3	0.0021548837
60	0xbd1ae666	-0.03781738
61	0xbcd4d4f4	-0.02598045
62	0x3c23e32b	0.0100028915
63	0x3c56a6c8	0.013101287
64	0xbce0a958	-0.0274245
65	0xbca91be0	-0.020643175
66	0x3c534604	0.012895111
67	0x3c05a161	0.0081561515
68	0x3d0230ad	0.031784702
69	0xbc0285c5	-0.007966463
70	0x3c288c04	0.010287289
71	0x39ec7f78	0.000451084
72	0xbcee19fb	-0.029065123
73	0x3c5ebb25	0.013594423
74	0xbbc35fe1	-0.0059623574
75	0x3bdab97b	0.006674943
76	0xbc3d23f9	-0.011544221
77	0xbcdec496	-0.027193349
78	0x3b12d394	0.0022403942
79	0x3cc3ef91	0.023917945
80	0xbc9ebb89	-0.019376533
81	0x3b54515e	0.0032397131
82	0xbc658e79	-0.014011019
83	0x3be40c90	0.0069595054
84	0x3c5403f8	0.012940399
85	0x3c0b43cd	0.008500052
86	0x3c8155c0	0.01578796
87	0x3c98f476	0.018671256
88	0xbc298175	-0.010345806
89	0xbbb2c3cc	-0.0054554697
90	0xbc42f2d1	-0.011898712
91	0x3c36c5ab	0.011155526
92	0xbc0778ec	-0.008268576
93	0x3c1deeac	0.009639423
94	0x3c1169b5	0.0088753
95	0xbb8a0e40	-0.0042131245
96	0xbc9f13d7	-0.01941864
97	0xbb05ae9e	-0.002039827
98	0x3c5f5ee6	0.013633465
99	0xba568272	-0.000818289
100	0x3b5c2bc3	0.003359542
101	0xbc12b819	-0.008955025
102	0xbaa5d89b	-0.0012653054
103	0x3c55e540	0.013055146
104	0xbc9f2e6b	-0.019431313
105	0xbca7ba83	-0.020474678
106	0x3bd0f364	0.0063766707
107	0x3ba50f71	0.005037241
108	0xbc3e7c69	-0.011626341
109	0xbcd5a880	-0.026081324
110	0x3c8b0967	0.016972257
111	0x3b9606b6	0.0045784367
112	0x3cf4f098	0.02989988
113	0x3bc5cea1	0.006036595
114	0x3a6ca0e0	0.0009026658
115	0x3cc035c9	0.023463147
116	0x3c8871ce	0.016655829
117	0xbb9391d0	-0.004503466
118	0xbb1219d5	-0.002229323
119	0x3bf709b2	0.0075389976
120	0xbad3d70e	-0.0016162114
121	0xbb9bac61	-0.004750774
122	0xbc8a96d1	-0.016917618
123	0x3be464de	0.006970032
124	0xbaf9ee26	-0.0019068166
125	0xbcc97d19	-0.024595784
126	0x3cabc42f	0.020967571
127	0x3abd2aca	0.0014432308
128	0x3ba0933f	0.0049003656
129	0x3b4ff194	0.0031729685
130	0x3cba4523	0.022738045
131	0x3be3156a	0.006930043
132	0x3b3fcf51	0.0029267857
133	0xb9707318	-0.0002293106
134	0x3c77712a	0.015102664
135	0x3a0916ed	0.00052295515
136	0x3b8ef55c	0.004362745
137	0xbb4584c2	-0.0030138944
138	0xbcb9135b	-0.022592237
139	0xbc4d2ce3	-0.012522909
140	0xbb16b940	-0.0022998601
141	0x3be0866b	0.0068519614
142	0x3b96e799	0.0046052453
143	0x3c7ad31f	0.015309124
144	0x3c07b15a	0.00828203
145	0xbcaf3e8a	-0.021392126
146	0xbc463d9b	-0.012099649
147	0xbb4aa52e	-0.0030921209
148	0x3bd5d2fa	0.0065253945
149	0xbc96713a	-0.018364538
150	0x3bc37973	0.0059654056
151	0x3c63972b	0.013891022
152	0xbd2470db	-0.04014669
153	0xbcc10289	-0.02356078
154	0xbc5f6354	-0.0136345215
155	0x3c2aad9f	0.010417371
156	0x3b8a4ce0	0.00422059
157	0x3a08fbdc	0.0005225518
158	0x3ce551de	0.027993139
159	0x3c82b88e	0.015957143
160	0x3c06f1ed	0.008236391
161	0xbb81b600	-0.0039584637
162	0x3ca1e83f	0.019764064
163	0xbc410746	-0.011781519
164	0x3aea13ba	0.0017858662
165	0xb9ff5e43	-0.0004870762
166	0x3cd2b559	0.025721239
167	0x3d02186c	0.03176157
168	0x3c4bf1a3	0.012447747
169	0xbc3744ea	-0.011185864
170	0xbbd68606	-0.0065467386
171	0x3bf9befc	0.007621644
172	0xbc1228dc	-0.008920874
173	0xbc38be09	-0.011275777
174	0x3b83e10a	0.0040246295
175	0x3c129416	0.008946439
176	0x3bfc7293	0.007704088
177	0xbc1cf701	-0.009580375
178	0xbc1f081a	-0.009706521
179	0xbc86fe75	-0.016478756
180	0xba63eb87	-0.0008694459
181	0xbc158387	-0.009125597
182	0xbab3122f	-0.0013662035
183	0x3c304d5e	0.010760633
184	0xbcc2323f	-0.0237056
185	0x3c64f1b8	0.013973646
186	0xbbda0296	-0.0066531403
187	0xbd0338e3	-0.032036673
188	0xbc487afd	-0.012236354
189	0xbcd44c1d	-0.0259152
190	0xbb3ded02	-0.002898038
191	0x3c6343be	0.013871131
192	0xbc017c29	-0.007903137
193	0xbcfe5185	-0.03104473
194	0x3cc1164c	0.023570202
195	0x3c19fac4	0.009398166
196	0xbb280033	-0.0025634884
197	0x3c0c777d	0.00857341
198	0x3c83ff3d	0.016112918
199	0x3ab6675f	0.0013916305
200	0xbd046c16	-0.03232964
201	0x3be2e775	0.0069245645
202	0xbcb74f56	-0.022376698
203	0xbc64dae8	-0.013968207
204	0xbc3b7e0f	-0.011443629
205	0x3c9c51a5	0.0190819
206	0x3d187d77	0.037229028
207	0xbc70e2e8	-0.014702536
208	0x3c6a1d15	0.01428916
209	0xbb8af578	-0.004240688
210	0x3a84e636	0.0010139409
211	0x3a41fdf7	0.00074002094
212	0x3c2e9e3f	0.010657846
213	0xbc2ca1de	-0.010536639
214	0xbc5e54b8	-0.013570003
215	0xbb999f5f	-0.004688188
216	0xbc5aa648	-0.013345309
217	0xbbc82455	-0.0061078467
218	0x3bbc6b39	0.0057500866
219	0x3bc1c1a4	0.0059129763
220	0x3c343c00	0.011000633
221	0xbce75716	-0.028239768
222	0xbc80f013	-0.015739476
223	0x3ca16dd9	0.0197057
224	0xbcddf02f	-0.027092068
225	0x3b4664e0	0.0030272529
226	0x3ab24056	0.0013599496
227	0x3c563b36	0.01307564
228	0x3cbd85ad	0.02313503
229	0x3c2da644	0.010598723
230	0x3c874583	0.016512638
231	0x3c47ac65	0.012187098
232	0xbd121c4b	-0.035671514
233	0xbd16bf21	-0.03680337
234	0xbcff7c6e	-0.031187262
235	0xbc12df6f	-0.0089644035
236	0xbc3e7cc2	-0.011626424
237	0xbc6731f2	-0.014111029
238	0x3c55beb8	0.013045959
239	0xbca100aa	-0.019653637
240	0x3ca4a357	0.020097418
241	0x3ba0b433	0.004904294
242	0xbbb0c2d0	-0.005394317
243	0x3bc84709	0.0061119837
244	0xbbb9fdec	-0.005676022
245	0xbc283c87	-0.010268337
246	0x3c382f87	0.0112418
247	0x3c25f153	0.010128337
248	0x3ac72f3f	0.0015196576
249	0x3a3129ea	0.000675826
250	0xbbc9b9e7	-0.0061561945
251	0xbcdffe9c	-0.027343087
252	0x3b07f178	0.0020743292
253	0xbae77976	-0.00176601
254	0xba88faee	-0.001045076
255	0x39eda4ed	0.00045327042

weight f4 [16, 24]
0	0xbe074604	-0.13210303
1	0x3e4d5911	0.20053507
2	0x3d004ef0	0.03132528
3	0x3d85acdd	0.06527112
4	0x3dbbc33e	0.09168099
5	0xbe0f9874	-0.14023
6	0x3dac7c05	0.08422092
7	0x3b56c0ce	0.003276873
8	0xbe022dd6	-0.12712798
9	0x37a160ac	1.9237712e-05
10	0x3ded5080	0.1158762
11	0xbe10365f	-0.14083241
12	0x3be9c880	0.007134497
13	0x3db84b6f	0.08998763
14	0xbe081cb0	-0.13292193
15	0xbc8acd4e	-0.0169436
16	0x3d36681d	0.044532884
17	0xbe089461	-0.13337852
18	0x3da5c023	0.08093288
19	0x3cf9226b	0.03041192
20	0x3e271cf5	0.1631964
21	0x3e29b0a4	0.1657129
22	0x3d1762d6	0.03695949
23	0x3db0ead3	0.08638539
24	0x3c7b5681	0.015340448
25	0xbe1d42e9	-0.15357555
26	0xbe508b41	-0.20365621
27	0x3e3d22ab	0.18470256
28	0x3e000a8b	0.12504022
29	0xbe4b1822	-0.19833425
30	0x3e11b5d4	0.14229518
31	0xbdba9ca5	-0.09111909
32	0xbdee158c	-0.116252035
33	0x3da6d6f5	0.081464685
34	0x3e2b7746	0.16744718
35	0x3d81b0fc	0.06332585
36	0x3d581a39	0.052759383
37	0x3e07e354	0.13270313
38	0x3da17010	0.07882702
39	0xbd8f494e	-0.06996404
40	0xbdc60524	-0.09668949
41	0x3d3f281f	0.04666912
42	0xbdc03df9	-0.0938682
43	0xbdc083f7	-0.0940017
44	0xbe3fb56b	-0.18721549
45	0xbd821e51	-0.06353439
46	0x3d247c92	0.040157862
47	0xbe590771	-0.21194245
48	0xbe65f01d	-0.22454877
49	0xbe157500	-0.14595413
50	0xbdc8f884	-0.098130256
51	0x3e2f73fc	0.17134088
52	0xbe1a6a09	-0.15079512
53	0x3d0f64c4	0.035008207
54	0xbdba9eed	-0.09112344
55	0xbe2fa88e	-0.17154142
56	0x3e18900f	0.14898704
57	0x3e11cf1a	0.14239159
58	0xbdc77ef7	-0.097410135
59	0xbe28558a	-0.1643888
60	0xbd28726f	-0.041124757
61	0xbe0a03d4	-0.13478023
62	0x3df448f2	0.11927976
63	0xbe08db65	-0.13364942
64	0xbd99ea48	-0.07515389
65	0xbd90597f	-0.0704832
66	0x3d40c47a	0.047062375
67	0xbcceffd2	-0.025268469
68	0xbe255615	-0.16146119
69	0x3d574f56	0.052565895
70	0xbe4bbba4	-0.19895798
71	0x3dd71e91	0.10503877
72	0x3e195cea	0.1497685
73	0xbe0e6a1e	-0.13907668
74	0xbe16ad95	-0.14714654
75	0xbdc2d3bd	-0.09513042
76	0xbde9ecde	-0.11422132
77	0xbdb00093	-0.085938595
78	0x3de28da0	0.11062169
79	0x3d582894	0.052773073
80	0x3db1c976	0.08681004
81	0x3c877724	0.016536303
82	0x3dbec86c	0.09315571
83	0x3e48cd80	0.19609642
84	0x3e45e315	0.19324906
85	0xbe29dc48	-0.16587937
86	0x3d36d439	0.044635985
87	0xbe071ead	-0.13195296
88	0x3d27c98d	0.0409637
89	0xbdad96e0	-0.08476043
90	0xbe27ddce	-0.16393206
91	0x3df52932	0.11970748
92	0xbe0e5026	-0.13897762
93	0x3c9343e4	0.017976709
94	0xbd0f303e	-0.034958117
95	0xbdf43157	-0.11923473
96	0x3e245887	0.16049396
97	0xbe0c486b	-0.136995
98	0x3e10d264	0.14142758
99	0x3d7d3ae5	0.061823744
100	0x3da015e2	0.07816674
101	0xbdcf64fe	-0.101266846
102	0x3e0728d3	0.13199167
103	0xbdd6781d	-0.104721285
104	0xbd69f8c5	-0.05712201
105	0xbe18df74	-0.1492899
106	0xbe4b7a3c	-0.19870847
107	0x3d1074ab	0.035267513
108	0x3dbfa3da	0.09357424
109	0xbe07bc58	-0.13255441
110	0x3e019604	0.12654883
111	0xbe4eeb4b	-0.20206945
112	0xbe65b54b	-0.22432439
113	0xbde22d10	-0.11043751
114	0xbe32be33	-0.17455368
115	0x3db89439	0.09012646
116	0x3d6e1dcc	0.058133885
117	0xbb11279c	-0.0022148853
118	0xbdb91a7c	-0.090382546
119	0xbd814aab	-0.0631307
120	0xbe28cdd7	-0.16484772
121	0x3d5187e5	0.05115499
122	0xbdf61b14	-0.120168835
123	0xbdcfbb5f	-0.1014316
124	0x3d3ff379	0.046863053
125	0xbca05e06	-0.019576084
126	0x3e0e6cac	0.13908643
127	0x3d91d716	0.071211025
128	0xbe234c20	-0.15947008
129	0xbd021556	-0.03175863
130	0xbe0d7f4b	-0.1381809
131	0x3deca61e	0.11555122
132	0x3d5a1e91	0.053251807
133	0x3dcf166e	0.101117
134	0xbe5d095d	-0.21585603
135	0x3d060497	0.03271922
136	0x3da749fe	0.0816841
137	0xbd1abfcf	-0.03778058
138	0x3cedbe6f	0.02902147
139	0xbe4e68a9	-0.20157112
140	0xbe36c220	-0.1784749
141	0x3e2660a7	0.16247807
142	0xbe5a7325	-0.21332987
143	0xbdeb12f1	-0.11478222
144	0x3cff3c98	0.031156823
145	0x3e273372	0.16328219
146	0x3d354c88	0.04426244
147	0x3e14adfa	0.14519492
148	0xbc7dccf1	-0.015490756
149	0xbd82e70b	-0.06391724
150	0x3dc19115	0.094515
151	0xbe2d114c	-0.1690113
152	0xbdd8e69f	-0.105908625
153	0xbe237822	-0.15963796
154	0xbda36331	-0.07977904
155	0x3bb63c3a	0.005561379
156	0xbe60a1bc	-0.21936697
157	0xbc81a902	-0.01582766
158	0xbda1f62d	-0.079082824
159	0xbd9a197b	-0.07524391
160	0xbd471602	-0.048604973
161	0x3c8061af	0.01567158
162	0xbdb6c3f7	-0.08924096
163	0xbe348383	-0.17628293
164	0xbdae8b23	-0.08522632
165	0xbe3493c5	-0.17634495
166	0x3c9033f0	0.01760289
167	0x3e1f12d2	0.15534523
168	0xbd8acb58	-0.06777066
169	0xbe497606	-0.19673929
170	0x3dfb0254	0.122563034
171	0x3d8e983a	0.06962629
172	0xbcf765ff	-0.030200003
173	0xbe2e0671	-0.16994645
174	0xbdfff8a3	-0.124985956
175	0xbda5e583	-0.081004165
176	0xbe03d289	-0.12873282
177	0xbe31e7f1	-0.17373635
178	0x3de2cb41	0.11073924
179	0xbbf91c18	-0.007602226
180	0x3d3b17c7	0.045676973
181	0xbd415125	-0.047196526
182	0xbdae5599	-0.0851242
183	0xbd5cc1a9	-0.053895626
184	0x3dfcd5c7	0.12345462
185	0xbd9ac369	-0.07556803
186	0xbe42ebf2	-0.19035318
187	0xbe1c018f	-0.1523497
188	0xbd840c4f	-0.0644766
189	0xbe2ba1fc	-0.16761011
190	0x3e02a3eb	0.12757842
191	0xbcee5f43	-0.029098159
192	0x3e548a76	0.20755944
193	0x3e03a132	0.1285446
194	0x3beb04bc	0.0071721952
195	0x3e201aba	0.15635195
196	0xbe298d66	-0.16557845
197	0x3cf09eec	0.029372655
198	0x3e2dc647	0.16970168
199	0x3dd484a7	0.10376864
200	0x3e544f5d	0.207334
201	0x3e310d11	0.1729014
202	0xbdd0192e	-0.10161053
203	0xbd6b144e	-0.05739241
204	0x3e218e1e	0.1577687
205	0xbb778985	-0.0037771177
206	0xbdd61706	-0.1045361
207	0x3e2a8780	0.16653252
208	0xbd3ac0d9	-0.04559407
209	0x3b80144a	0.0039086686
210	0x3e0858fe	0.13315198
211	0x3d2c8d21	0.04212678
212	0xbe016fd0	-0.1264031
213	0x3b9fc28e	0.0048754876
214	0x3e63ace4	0.22233921
215	0x3e003509	0.12520231
216	0xbc939e7d	-0.018019909
217	0x3e23c700	0.15993881
218	0x3ca3147f	0.019907234
219	0x3e56b2ff	0.20966719
220	0x3e2fbcef	0.17161916
221	0x3e62fdb5	0.22167094
222	0xbde14f31	-0.11001433
223	0xbe2df18a	-0.16986671
224	0x3d3a027d	0.04541253
225	0xbce6952e	-0.028147306
226	0x3dc02a25	0.093830384
227	0x3cea8894	0.028629579
228	0x3e2bb36c	0.16767663
229	0xbc35f15b	-0.011104907
230	0xbd23a8cc	-0.0399559
231	0xbdf96864	-0.12178114
232	0xbe01d138	-0.12677467
233	0x3e581479	0.2110156
234	0x3e487732	0.1957672
235	0x3e29a394	0.16566306
236	0x3de07cb3	0.109612845
237	0x3de53d5c	0.11193344
238	0x3ca9dd4f	0.020735411
239	0xbe01175d	-0.12606569
240	0xbcddf263	-0.027093118
241	0xbe3550d9	-0.17706622
242	0xbd3b9bec	-0.045802996
243	0xbc211526	-0.009831702
244	0xbd760c7f	-0.06007051
245	0x3b07a3f9	0.00206971
246	0xbe33f8d4	-0.17575389
247	0xbdbb8f50	-0.09158194
248	0xbde2085d	-0.110367514
249	0xbdb67dd6	-0.0891072
250	0x3e2d1d7b	0.16905777
251	0x3d23c52b	0.039982956
252	0xbe279d60	-0.16368628
253	0xbd953e9d	-0.07287333
254	0x3e4a54b4	0.19758874
255	0x3df98751	0.12184013

bias f4 [16]
0	0x3e19a711	0.15005137
1	0xbddb8840	-0.10719347
2	0x3c94d0a5	0.018165896
3	0xbde4f6f3	-0.11179914
4	0x3d1edfc0	0.038787603
5	0x3dd9fa97	0.10643499
6	0xbe06bf7c	-0.13158983
7	0xbdf8f9a0	-0.12156987
8	0xbd231189	-0.039811645
9	0xbd7a2708	-0.06107238
10	0x3e2182bd	0.15772529
11	0xbd152ac2	-0.03641773
12	0x3d4a2f5e	0.04936158
13	0x3e3863f9	0.18006887
14	0x3d83e502	0.06440164
15	0xbd92e9b8	-0.071734846

weight f4 [16, 16]
0	0x3e76e784	0.24111754
1	0x3dbc69db	0.09199878
2	0xbd8e3dd7	-0.06945389
3	0x3dba2fa1	0.09091116
4	0x3e5aaf0e	0.2135584
5	0xbe4f7e8e	-0.2026312
6	0xbe411776	-0.18856606
7	0x3c882588	0.016619459
8	0x3e5d330d	0.21601506
9	0x3e5f11e2	0.21784166
10	0xbcf8df78	-0.030379996
11	0xbe6646e9	-0.22487988
12	0xbe62b5ae	-0.22139618
13	0xbd9b9c90	-0.07598221
14	0x3cac20ba	0.021011699
15	0x3b9118c1	0.0044279997
16	0xbdd7ca4c	-0.10536632
17	0x3d8891b1	0.066684134
18	0xbd9c8873	-0.07643213
19	0xbc688e74	-0.01419412
20	0xbe43c706	-0.1911889
21	0x3dd50268	0.104008496
22	0xbe36116a	-0.1778008
23	0xbe2e559a	-0.17024842
24	0x3e63c088	0.22241414
25	0xbd0b1d0b	-0.033963244
26	0x3e4ea787	0.20181094
27	0x3e0e3e60	0.13890982
28	0x3e6a916e	0.2290704
29	0x3e12e98a	0.143469
30	0x3e31fc25	0.17381342
31	0xbd3c9753	-0.04604275
32	0x3e449f63	0.19201426
33	0x3c279a99	0.01022973
34	0xbd190170	-0.037354887
35	0x3c89129b	0.016732505
36	0xbdbde788	-0.09272677
37	0xbe3689e6	-0.17826042
38	0xbdb09e68	-0.086239636
39	0xbbc1165a	-0.005892557
40	0x3d576073	0.052582216
41	0x3da43311	0.08017553
42	0xbe2a601e	-0.16638228
43	0x3e1c0c44	0.15239054
44	0x3e6bfd02	0.23045734
45	0xbe260278	-0.16211879
46	0x3d92852c	0.07154307
47	0xbd9e1f7c	-0.07720849
48	0xbe5693d2	-0.20954826
49	0xbd865235	-0.065586485
50	0x3e227e76	0.15868554
51	0x3dcd1e1a	0.10015507
52	0xbe7c4db5	-0.24639018
53	0xbc8a0469	-0.016847806
54	0xbdc2470a	-0.09486206
55	0xbe3cfc4b	-0.18455617
56	0x3cf91a66	0.030408096
57	0x3da35d27	0.07976752
58	0x3daf1dee	0.085506305
59	0xbe17cd5e	-0.14824435
60	0xbe71aff2	-0.23602274
61	0x3e061ab1	0.1309612
62	0xbe83ce92	-0.25743538
63	0x3bea5ccc	0.0071521755
64	0xbe1e88e5	-0.15481909
65	0xbde0b0a8	-0.109711945
66	0x3d83b856	0.06431644
67	0xbe174ca3	-0.14775328
68	0xbe69b8e0	-0.2282443
69	0x3cb4b86b	0.022060594
70	0x3cf0b161	0.029381456
71	0x3e5ec069	0.21753086
72	0x3e450442	0.19239905
73	0xbe3ae020	-0.1824956
74	0x3dc3566b	0.09537967
75	0xbe276e30	-0.16350627
76	0x3d2906ba	0.04126618
77	0xbe40badf	-0.18821286
78	0xbcf905e1	-0.030398311
79	0xbe0e16ca	-0.13875881
80	0xbdd1e0cb	-0.10247954
81	0xbdd9a48f	-0.1062709
82	0xbe3cf3fe	-0.1845245
83	0x3e6b72bb	0.22992985
84	0xbe097943	-0.13425164
85	0xbda59559	-0.080851264
86	0x3e19cb02	0.15018848
87	0x3e5c449f	0.21510552
88	0xbdb6d36f	-0.089270465
89	0x3d5a45e9	0.053289328
90	0x3d8d9b1f	0.069143526
91	0xbe08883e	-0.13333222
92	0xbe82d592	-0.25553566
93	0xbda03a7f	-0.07823657
94	0x3dc82441	0.0977254
95	0xbc6fda55	-0.014639457
96	0x3e31d56d	0.17366572
97	0x3e66bf0c	0.22533816
98	0x3e5cbf91	0.21557452
99	0x3e80870c	0.25103033
100	0xbd863908	-0.065538466
101	0xbe3aaa8b	-0.1822912
102	0x3e27935c	0.16364807
103	0xbe17aed0	-0.1481278
104	0xbe0ce7f2	-0.13760355
105	0xbe048251	-0.12940337
106	0xbdca68bf	-0.0988326
107	0xbdd92efc	-0.10604665
108	0xbe41fa83	-0.18943219
109	0x3e59c0f2	0.21265009
110	0x3ddddae3	0.10832765
111	0x3b73fa4b	0.0037228044
112	0x3e42d279	0.19025601
113	0xbd569991	-0.052392546
114	0xbdabd1ae	-0.083896026
115	0xbd09a045	-0.03360011
116	0xbe3d813e	-0.18506333
117	0xbdd95bae	-0.1061319
118	0xbc572114	-0.013130445
119	0x3ddcbc13	0.1077806
120	0xbe883b2a	-0.2660764
121	0xbc86df58	-0.01646392
122	0x3e052f1b	0.1300625
123	0x3e576a9d	0.21036763
124	0xbe1c49b5	-0.15262492
125	0xbe28428c	-0.16431636
126	0x3deb7501	0.11496926
127	0x3d9a404a	0.075317934
128	0x3e04fda7	0.12987386
129	0x3e62544a	0.22102466
130	0xbe5fc153	-0.21851091
131	0x3e34eac7	0.17667685
132	0x3e713633	0.23555832
133	0xbcdb90b8	-0.026802406
134	0xbd9ba0ae	-0.075990066
135	0xbe15a37c	-0.14613146
136	0x3df93b4d	0.12169514
137	0xbe2e8ff3	-0.170471
138	0xbc07917f	-0.008274435
139	0xbe546fb6	-0.2074574
140	0x3dbd78d6	0.09251563
141	0xbd4b6b70	-0.049663007
142	0x3df4d64e	0.11954938
143	0xbe60b4df	-0.21943997
144	0x3e13fb36	0.14451298
145	0x3e355397	0.17707668
146	0x3decb5e5	0.11558131
147	0x3e5b1dec	0.21398133
148	0x3e035fba	0.12829486
149	0x3d7ddd11	0.061978403
150	0x3e3ebd89	0.1862699
151	0x3e7f6374	0.24940282
152	0xbd8fd0f7	-0.07022279
153	0x3d9c2d21	0.07625795
154	0xbdf8dfa6	-0.121520326
155	0xbe14e3fa	-0.14540091
156	0x3dc7484a	0.09730585
157	0x3e3ca7d1	0.18423392
158	0xbe2db0df	-0.16962002
159	0xbe86450d	-0.26224557
160	0x3ccdde59	0.025130438
161	0xbd896a27	-0.067097
162	0x3defe8bf	0.11714315
163	0xbe4e771a	-0.20162621
164	0x3d5b61b8	0.05355999
165	0x3dbfd168	0.09366113
166	0xbe355f53	-0.17712145
167	0xbe65b6c2	-0.22432998
168	0xbd0864f8	-0.033299416
169	0x3e817f31	0.25292352
170	0xbe046745	-0.12930019
171	0xba8d436d	-0.0010777541
172	0x3db86d9d	0.09005282
173	0xbe8cf816	-0.27533025
174	0xbe75e147	-0.24011718
175	0x3cd41026	0.025886606
176	0xbd96f72f	-0.07371365
177	0xbe530246	-0.20606336
178	0x3d7b8a86	0.061411403
179	0xbe508c3c	-0.20365995
180	0xbdd9f687	-0.106427245
181	0x3df1ee06	0.118129775
182	0xbb1587f2	-0.0022816625
183	0x3e5c2b36	0.21500859
184	0xbd8afbf6	-0.06786339
185	0x3e228ff7	0.1587523
186	0x3e19953d	0.14998336
187	0x3e15d355	0.14631398
188	0xba986c1b	-0.0011628898
189	0x3e075b78	0.13218486
190	0xbcde5fa7	-0.02714522
191	0x3e4fee9c	0.20305866
192	0x3da937c9	0.08262593
193	0x3d74b8a7	0.05974641
194	0x3e5b35ef	0.21407293
195	0x3dd1affe	0.10238646
196	0x3deb6755	0.114943184
197	0x3cdd1133	0.02698574
198	0x3e1bccad	0.15214796
199	0x3e2e6adb	0.1703295
200	0xbe485e24	-0.19567162
201	0xbdad4c33	-0.084617995
202	0x3d623ad2	0.055231877
203	0xbdcf46aa	-0.101209
204	0xbe11e751	-0.14248396
205	0xbe5169bf	-0.20450495
206	0xbd964df2	-0.07339086
207	0x3e5b6fd0	0.21429372
208	0x3deb9456	0.11502902
209	0x3e1866ae	0.14882919
210	0x3d3c4ad6	0.045969807
211	0x3e1cefda	0.15325871
212	0xbdef560b	-0.11686333
213	0xbdc9e1b4	-0.098575026
214	0xbd68a224	-0.056795254
215	0x3d731485	0.05934574
216	0x3e6676bd	0.22506233
217	0x3d429784	0.047507778
218	0x3db93076	0.09042446
219	0x3d5da761	0.054114703
220	0x3e1d75bf	0.15376948
221	0xbcdcb78f	-0.026942996
222	0xbe0e8a91	-0.13920046
223	0x3e2e826c	0.1704194
224	0x3e1208c5	0.14261158
225	0x3e730bba	0.23734942
226	0xbdb09957	-0.08622997
227	0xbe24bbe6	-0.16087303
228	0x3e5fca97	0.21854626
229	0xbdc5f38f	-0.09665596
230	0xbe5c588b	-0.21518151
231	0x3e51aa53	0.2047513
232	0xbc7fbf3c	-0.015609559
233	0x3c5883a9	0.013214984
234	0xbc6c4e28	-0.014422931
235	0xbe1d5744	-0.1536532
236	0xbe3c8b50	-0.18412519
237	0xbe6c3126	-0.23065624
238	0x3dac841c	0.08423635
239	0xbc651b10	-0.013983503
240	0xbd8d66d1	-0.06904376
241	0x3e50038e	0.20313856
242	0xbced8e45	-0.028998503
243	0x3e5789e0	0.21048689
244	0xbe78f2d9	-0.24311389
245	0xbd99a242	-0.07501651
246	0x3cb28298	0.021790788
247	0xbe64fa5f	-0.22361134
248	0x3d1951d8	0.037431568
249	0xbe6dd9f9	-0.23227681
250	0xbe67a35f	-0.22620915
251	0x3db1b507	0.08677106
252	0x3e42d16e	0.19025204
253	0x3df8a280	0.121403694
254	0xbd4798c8	-0.048729688
255	0xbe09fcb0	-0.13475299

bias f4 [16]
0	0xbe582ab6	-0.21110043
1	0x3e0b2316	0.13587603
2	0xbde558db	-0.111985885
3	0xbda69f45	-0.08135847
4	0xbe237301	-0.1596184
5	0x3df1cb14	0.11806312
6	0x3e87271d	0.2639703
7	0x3e40918e	0.18805525
8	0xbd1f12c1	-0.038836244
9	0x3d9a8330	0.07544553
10	0x3dc77c5b	0.09740516
11	0x3d71b4c7	0.059010293
12	0xbdec63d3	-0.115424775
13	0xbc931043	-0.01795209
14	0x3d7cc251	0.061708752
15	0x3e0527fe	0.13003537

weight f4 [16, 16]
0	0xbdef2583	-0.11677077
1	0x3d32a679	0.043615792
2	0xbe433fbf	-0.19067286
3	0x3e6aeb07	0.22941218
4	0x3dfbb815	0.1229097
5	0x3e531b9b	0.20616
6	0xbe050801	-0.12991334
7	0x3d9849c3	0.07435944
8	0x3e2e50d7	0.17023025
9	0xbe7c0a6d	-0.24613352
10	0xbd1a9a13	-0.037744593
11	0x3e402ffa	0.18768302
12	0xbe481f1c	-0.19543117
13	0xbd97a3ba	-0.07404275
14	0x3d8494e8	0.06473714
15	0xbca99a08	-0.02070333
16	0x3ddc928c	0.10770139
17	0xbe0c4c71	-0.13701035
18	0xbe11cbef	-0.1423795
19	0x3e535597	0.20638119
20	0xbe7ba255	-0.24573644
21	0xbe3979dc	-0.18112892
22	0xbdab947a	-0.08377929
23	0x3e440904	0.19144064
24	0x3dfbb493	0.12290301
25	0x3c63b9b9	0.01389926
26	0x3e7687b8	0.2407521
27	0x3e12d00d	0.14337178
28	0xbd125030	-0.035721004
29	0x3d193323	0.037402283
30	0xbe70838f	-0.23487686
31	0x3e118923	0.1421247
32	0xbcdc6f8b	-0.026908657
33	0xbe630450	-0.22169614
34	0xbe3565f3	-0.17714672
35	0x3e269937	0.16269384
36	0xbe68503d	-0.22686858
37	0x3dbdfe75	0.092770495
38	0xbe3225a5	-0.17397173
39	0xbe1acbe3	-0.15116839
40	0xbdb522db	-0.08844539
41	0xbe5380ed	-0.2065465
42	0xbe4a601a	-0.19763222
43	0xbce96406	-0.028490078
44	0xbe4e8ef4	-0.2017172
45	0xbe5b388c	-0.2140829
46	0x3de79405	0.11307529
47	0x3cc90cea	0.02454229
48	0xbe01ebed	-0.12687655
49	0x3e003e0c	0.12523669
50	0x3d89e4ca	0.06733091
51	0xbc6510e0	-0.013981074
52	0xbd13508a	-0.03596548
53	0xbe7c81fc	-0.2465896
54	0xbe3a0018	-0.18164098
55	0xbc6fc402	-0.014634134
56	0xbe671bb5	-0.22569163
57	0x3dd9fec7	0.10644298
58	0x3d9fe227	0.07806807
59	0x3db9d6b5	0.09074155
60	0x3e375492	0.17903355
61	0xbdb2be9c	-0.08727762
62	0x3e5c3598	0.2150482
63	0xbe6607f4	-0.22463971
64	0x3d32f772	0.043693013
65	0x3e1045cd	0.14089127
66	0x3d24f95d	0.040276874
67	0xbc4a8c41	-0.012362541
68	0xbe3dfa9d	-0.18552633
69	0xbde32580	-0.11091137
70	0xbe188181	-0.14893152
71	0xbdfa1a6e	-0.12212072
72	0xbdbff705	-0.09373287
73	0xbc30c677	-0.010789505
74	0x3e42cd77	0.19023691
75	0x3e292bda	0.16520634
76	0xbdd68ab8	-0.10475677
77	0x3dd855ea	0.10563262
78	0xbdbf4861	-0.09339977
79	0xbdc71d66	-0.09722404
80	0x3e2a87a9	0.16653313
81	0x3e756cb0	0.23967242
82	0x3e4cc066	0.19995269
83	0x3e77e087	0.24206744
84	0x3d746cd8	0.059674114
85	0xbd876fc5	-0.06613115
86	0x3d9ae653	0.07563462
87	0xbe0d587d	-0.13803287
88	0xbd03ad19	-0.0321475
89	0xbdea0c6d	-0.11428151
90	0xbd9eeee6	-0.0776041
91	0xbbf2920d	-0.0074026645
92	0xbd108abf	-0.03528857
93	0xbdee455e	-0.116343245
94	0x3dbb671b	0.09150525
95	0xbe229738	-0.15877998
96	0x3e603c94	0.21898109
97	0x3e7c73c1	0.24653532
98	0x3e145026	0.14483699
99	0x3d09f3cf	0.03367978
100	0x3e7ea0cf	0.24866031
101	0x3c5b90d7	0.013401232
102	0x3cc5e891	0.024158748
103	0x3e010d5a	0.1260275
104	0xbdbbc45d	-0.09168313
105	0xbd2410d7	-0.040055122
106	0xbda45e8e	-0.080258474
107	0x3c902ad1	0.017598541
108	0x3d3109ed	0.043222357
109	0xbdbc9939	-0.092089124
110	0x3d7ba4d2	0.06143648
111	0x3d861c8c	0.06548414
112	0xbdd77396	-0.10520093
113	0xbcd0c5f1	-0.02548501
114	0xbdcf1984	-0.101122886
115	0xbdabec11	-0.083946355
116	0x3e1d160d	0.15340443
117	0x3e2b66dd	0.16738458
118	0x3d8b52e5	0.0680292
119	0x3e51c7e4	0.20486408
120	0xbe5d4b0d	-0.21610661
121	0xbda65cd6	-0.08123176
122	0xbd6daed3	-0.058028053
123	0xbe4c9787	-0.19979678
124	0xbdee4c65	-0.11635665
125	0x3c8967a9	0.016773062
126	0x3dca7d84	0.098872215
127	0xbc7edccd	-0.015555573
128	0xbe4fa90a	-0.20279327
129	0x3e134c72	0.1438463
130	0x3e505bad	0.20347472
131	0xbe4f06f7	-0.202175
132	0xbe29c086	-0.16577348
133	0x3e51b616	0.20479617
134	0xba9d61ca	-0.0012007293
135	0xbe203a26	-0.15647182
136	0xbda03a7a	-0.078236535
137	0x3e74acb5	0.23894008
138	0xbda2751c	-0.07932493
139	0x3c6b7f48	0.014373608
140	0xbd49e894	-0.04929407
141	0x3dbd79e3	0.09251764
142	0xbe3c2db8	-0.18376815
143	0xbe03898c	-0.12845439
144	0x3e30444f	0.17213558
145	0xbe5e9ef5	-0.21740325
146	0xbe3976cd	-0.18111725
147	0xbd4d0974	-0.050057843
148	0xbe859265	-0.26088253
149	0xbdc249db	-0.09486743
150	0x3cc5bdda	0.02413838
151	0x3d7f0e36	0.062269412
152	0x3de3a03d	0.111145474
153	0x3d83d000	0.06436157
154	0x3e660590	0.2246306
155	0x3e7a7d2b	0.2446181
156	0x3e138c08	0.14408886
157	0x3e4dd203	0.20099644
158	0x3e02ffd5	0.12792905
159	0xbe7387dd	-0.23782296
160	0x3d5dba4e	0.054132752
161	0xbe42dac5	-0.19028766
162	0x3d2c3a35	0.042047698
163	0xbd908a7f	-0.07057666
164	0xbe6590bb	-0.22418492
165	0x3e70c576	0.23512825
166	0xbe5f9a04	-0.21836096
167	0xbe56b6c0	-0.20968151
168	0x3e52fae2	0.20603517
169	0xbe8068ac	-0.25079858
170	0x3deab7bc	0.11460826
171	0x3b81c2cb	0.0039599887
172	0xbe0532ce	-0.13007662
173	0x3dea0172	0.11426057
174	0xbe213a40	-0.15744877
175	0x3d139932	0.03603477
176	0x3d82d8c3	0.06389
177	0x3dfbf029	0.12301666
178	0x3e189fee	0.14904758
179	0xbd90605e	-0.070496306
180	0x3e0c452f	0.13698266
181	0x3d64dd0e	0.055874877
182	0x3e6fb3ab	0.23408382
183	0x3de9c16a	0.11413844
184	0xbdc48ef2	-0.09597577
185	0xbe8104c0	-0.25198936
186	0xbd19821d	-0.0374776
187	0x3d16182d	0.03664415
188	0xbdca705b	-0.09884711
189	0xbd6c840b	-0.057743113
190	0x3e4037d7	0.18771301
191	0xbda6f0a6	-0.08151369
192	0x3e4e5f9c	0.2015366
193	0xbe3f2a1a	-0.18668404
194	0x3e8638db	0.26215252
195	0xbbf6c829	-0.007531185
196	0x3d5babe7	0.053630736
197	0x3e92d665	0.28679195
198	0x3dd7d942	0.105394855
199	0x3e584b13	0.21122389
200	0xbd4cb4af	-0.049977
201	0x3c15d749	0.009145566
202	0xbe01bb62	-0.12669137
203	0x3e069cab	0.13145702
204	0x3de1e6e9	0.11030371
205	0xbe202540	-0.1563921
206	0x3d9fe418	0.07807177
207	0x3e5c3f6a	0.21508566
208	0x3e63640d	0.22206135
209	0xbdd75815	-0.10514847
210	0xbcd02258	-0.025407001
211	0xbdbbff6c	-0.09179577
212	0xbe48618c	-0.19568461
213	0x3c8d4d5d	0.017248804
214	0xbe10782a	-0.14108339
215	0x3df21540	0.11820459
216	0x3e560366	0.20899734
217	0x3e07d1fa	0.13263693
218	0xb98641bc	-0.00025607448
219	0x3d998c64	0.074974805
220	0xbda430d1	-0.080171235
221	0x3e87d52d	0.26529828
222	0x3d1ac767	0.03778782
223	0x3e2b3b8b	0.16721933
224	0xbe83eb2f	-0.25765368
225	0x3e2fdd84	0.17174345
226	0x3e468938	0.19388282
227	0x3d22db1b	0.039759737
228	0x3e7fd498	0.24983442
229	0x3df02793	0.11726298
230	0xbe303ecb	-0.17211454
231	0xbba12d46	-0.004918727
232	0x3d37a179	0.044831727
233	0xbe13398a	-0.14377418
234	0x3d1b67c8	0.03794077
235	0x3e0475ed	0.1293561
236	0xbda533be	-0.0806651
237	0x3ba3a6d3	0.004994252
238	0xbe54cacf	-0.2078049
239	0xbe146fd9	-0.14495791
240	0x3e03f9fc	0.1288833
241	0x3d9662ef	0.07343089
242	0xbe806053	-0.2507349
243	0x3e06c614	0.13161498
244	0x3dadbf25	0.084837236
245	0x3e5c8ca9	0.21538033
246	0xbd276e50	-0.040876687
247	0xbe535a09	-0.20639814
248	0x3e1e8397	0.15479885
249	0xbde6a930	-0.11262739
250	0xbe61a2cf	-0.22034763
251	0xbd32b415	-0.04362877
252	0xbe25c4a9	-0.16188301
253	0x3e0eaacb	0.1393234
254	0x3d1befa5	0.03807034
255	0x3d4efa97	0.05053195

bias f4 [16]
0	0xbd877c72	-0.06615533
1	0xbdd25e5b	-0.10271903
2	0x3e71ff5e	0.23632571
3	0x3e24c3c4	0.16090304
4	0x3e31a214	0.17346984
5	0x3e4b23c8	0.19837868
6	0x3e025eb0	0.12731433
7	0x3d39feb3	0.045408916
8	0xbcd2f11b	-0.025749734
9	0x3e62d4e0	0.22151518
10	0xbe78e58e	-0.24306318
11	0x3c6cbb45	0.014448945
12	0x3d433162	0.047654517
13	0x3c363892	0.011121886
14	0xbd674d93	-0.056470465
15	0xbe64e873	-0.22354297

weight f4 [16, 16]
0	0xbe73a635	-0.23793872
1	0xbd5325dc	-0.051549777
2	0xbc031cd6	-0.0080024805
3	0xbdf5f013	-0.12008681
4	0x3d76f122	0.060288556
5	0xbe6a7dc5	-0.2289954
6	0xbe12a70c	-0.14321536
7	0x3d87d03c	0.066315144
8	0xbe212892	-0.15738133
9	0xbb361f67	-0.0027789713
10	0x3e059444	0.1304484
11	0xbda819fe	-0.082080826
12	0x3dbe5023	0.092926286
13	0x3dcb2b8c	0.09920415
14	0x3c6b5ccd	0.014365387
15	0xbccd9c73	-0.025099015
16	0xbe3c394f	-0.18381236
17	0xbe6b7855	-0.22995122
18	0xbe0b55e1	-0.13606979
19	0x3e5a42cd	0.21314545
20	0xbe74df3b	-0.2391328
21	0x3e466fbc	0.19378561
22	0xbd2ed8a6	-0.04268708
23	0xbdb5b99f	-0.08873295
24	0x3d8747f1	0.066055186
25	0xbe6de415	-0.23231538
26	0xbe324366	-0.17408523
27	0x3c29645e	0.010338871
28	0x3e7112dd	0.23542352
29	0xbe1455cf	-0.14485858
30	0xbcf27c94	-0.02960042
31	0xbe6ad3b6	-0.22932324
32	0xbe68f37d	-0.22749133
33	0x3d080d17	0.03321561
34	0x3e042a95	0.12906869
35	0xbdca6a8b	-0.09883603
36	0x3e81a039	0.25317553
37	0xbdbe0b7e	-0.09279536
38	0x3e09abb0	0.134444
39	0x3e5c5b15	0.2151912
40	0xbe02cd12	-0.1277354
41	0xbe1187c9	-0.14211954
42	0x3e5e30ad	0.21698256
43	0xbd89c215	-0.06726471
44	0x3dcd2e96	0.10018651
45	0x3e8464a8	0.25858045
46	0x3c362f8a	0.011119733
47	0x3e2abfde	0.16674754
48	0xbe429f03	-0.1900597
49	0x3ca40afc	0.020024769
50	0x3e100c3d	0.14067169
51	0x3cc8001b	0.024414113
52	0xbd67d443	-0.056598913
53	0xbd0e6d2b	-0.03477208
54	0xbe06912b	-0.13141315
55	0xbe5ac24a	-0.21363178
56	0x3e60a0fd	0.21936412
57	0xbbef3c79	-0.00730091
58	0x3ca83e4b	0.020537516
59	0x3e7e15fc	0.24813074
60	0xbdc65a08	-0.09685141
61	0x3e82e93b	0.25568566
62	0xbca44570	-0.020052642
63	0x3bd042ee	0.006355635
64	0x3e362dc9	0.17790903
65	0xbb66d912	-0.0035224599
66	0xbe7e6956	-0.2484487
67	0x3daee981	0.08540631
68	0x3e41f798	0.18942106
69	0xbe5e5b4e	-0.21714517
70	0x3d8592e3	0.06522157
71	0xbe72f036	-0.23724446
72	0x3e2be715	0.1678737
73	0x3e7bc09c	0.24585193
74	0x3e46467c	0.19362825
75	0xbe28c563	-0.16481547
76	0x3e6c80d1	0.23096015
77	0xbe48ad70	-0.19597411
78	0xbde64cbd	-0.112451054
79	0x3be2fdea	0.0069272416
80	0x3dcd48a5	0.100236215
81	0xbd8d49d2	-0.06898846
82	0xbe832508	-0.2561419
83	0x3e5dedba	0.21672717
84	0x3e4af44e	0.19819757
85	0x3e1fea94	0.15616828
86	0xbe289809	-0.16464247
87	0xbe5453b5	-0.20735057
88	0xbd5bcc96	-0.053661905
89	0xbced4b57	-0.028966589
90	0x3e0530e0	0.13006926
91	0x3e2c05b6	0.16799054
92	0xbd3a4f3c	-0.04548572
93	0x3df5ca98	0.12001532
94	0xbe36946e	-0.17830059
95	0xbe5ea600	-0.21743011
96	0xbe04c6c9	-0.12966456
97	0xbe293ba9	-0.16526665
98	0xbe0f69fa	-0.1400527
99	0xbe755372	-0.23957613
100	0x3b5b8088	0.0033493359
101	0xbd4195b4	-0.04726191
102	0xbd38776b	-0.04503576
103	0xbda720da	-0.08160563
104	0xbe0c80f7	-0.13721071
105	0x3dcb6ec8	0.09933239
106	0x3d7730ae	0.06034916
107	0x3dfc19fa	0.12309642
108	0x3e4e0445	0.20118816
109	0xbe67c297	-0.22632824
110	0xbe6bbb1c	-0.23020595
111	0x3c4f332d	0.012646479
112	0x3e3f6444	0.18690592
113	0x3d4ee78a	0.05051378
114	0x3e4601d3	0.19336633
115	0xbe2ff8f5	-0.17184813
116	0xbe5cd675	-0.21566184
117	0xbd744110	-0.05963236
118	0xbe5644ea	-0.20924726
119	0x3db98266	0.09058075
120	0x3dcf5d66	0.10125236
121	0x3e6f945d	0.2339644
122	0xbd4fd9c1	-0.050744776
123	0xbe65510c	-0.22394198
124	0xbe3b3409	-0.18281569
125	0x3b42d7a5	0.0029730585
126	0xbddd4109	-0.1080342
127	0xbe3fba4a	-0.18723407
128	0xbe1df181	-0.15424158
129	0x3e1849a0	0.14871836
130	0xbd601015	-0.054702837
131	0xbe4bb762	-0.19894174
132	0xbe4def28	-0.20110762
133	0xbe20eee3	-0.15716128
134	0x3e3cf25e	0.1845183
135	0x3d492380	0.04910612
136	0x3e62de92	0.22155216
137	0xbc97765e	-0.018489059
138	0x3e095777	0.13412271
139	0x3e6aecd9	0.22941913
140	0x3d7358d2	0.059410878
141	0x3ddadfa9	0.10687191
142	0xbdccc4c0	-0.099984646
143	0x3cedbece	0.029021647
144	0x3e5119e4	0.20420033
145	0xbe58c70f	-0.21169685
146	0xbdd0a62f	-0.10187947
147	0x3e20f600	0.15718842
148	0xbe464fa5	-0.1936632
149	0x3e2234a8	0.158404
150	0x3d4d1bd0	0.050075352
151	0xbd16403f	-0.036682364
152	0xbd136ab2	-0.035990424
153	0xbe41b832	-0.18917921
154	0x3e25e406	0.16200265
155	0xbd3c55ca	-0.045980252
156	0xbe4491e0	-0.19196272
157	0xbe75874b	-0.23977391
158	0xbe5ff3b9	-0.21870317
159	0x3e3811ec	0.17975587
160	0xbdbeede4	-0.09322718
161	0xbe66d481	-0.22542001
162	0x3e58aad8	0.21158922
163	0x3e5f65f4	0.21816236
164	0x3e53312f	0.20624231
165	0xbe51ee41	-0.20501043
166	0xbe5fc4fc	-0.21852487
167	0x3daab20c	0.08334741
168	0xbe52cccf	-0.20585941
169	0xbd592513	-0.053013872
170	0x3e8c8838	0.27447677
171	0xbe48ce89	-0.19610037
172	0x3d91fbe2	0.07128121
173	0xbe1b7b8a	-0.15183845
174	0xbe081643	-0.13289742
175	0xbd77639c	-0.06039773
176	0xbd3a129f	-0.045427915
177	0xbe6cb98d	-0.23117657
178	0xbdc0c9ca	-0.09413488
179	0xbd2931bf	-0.041307207
180	0xbdf21731	-0.1182083
181	0x3de1264e	0.10993634
182	0xbda10488	-0.078621924
183	0x3e504277	0.20337854
184	0x3d9be191	0.07611383
185	0xbe85bad2	-0.26119095
186	0xbe01783e	-0.12643525
187	0x3d3e06b8	0.046393126
188	0xbe07e024	-0.13269097
189	0x3c00d78f	0.007863893
190	0xbd20da65	-0.039270777
191	0x3e3692ba	0.17829409
192	0xbcdcf8b5	-0.026974062
193	0x3e32c3d7	0.1745752
194	0x3e7f8a29	0.24955048
195	0x3d961d55	0.073298134
196	0xbdcf232a	-0.10114129
197	0xbdbff7fa	-0.0937347
198	0xbe162563	-0.146627
199	0xbe44475b	-0.19167845
200	0xbe806df9	-0.25083902
201	0x3e3dd7a1	0.18539287
202	0xbcc33a22	-0.02383143
203	0xbe4e31ff	-0.2013626
204	0xbdb42fa9	-0.08798153
205	0x3df6347c	0.12021729
206	0xbde611c6	-0.11233859
207	0x3e134cc6	0.14384755
208	0x3e44c536	0.19215855
209	0x3e69b487	0.22822772
210	0xbd2ddc80	-0.042446613
211	0x3d5b3cac	0.053524658
212	0xbd257ee1	-0.040404204
213	0x3da9eda2	0.08297278
214	0x3d7eaf23	0.062178742
215	0xbe1bd7e0	-0.15219069
216	0xbe4a20a4	-0.19739014
217	0xbc24b4a2	-0.010052832
218	0x3e29c05b	0.16577284
219	0x3e070d29	0.13188614
220	0xbe7239cc	-0.2365486
221	0xbe012c6f	-0.12614606
222	0xbdbf6de6	-0.09347133
223	0xbe22b85f	-0.15890644
224	0xbe2140fa	-0.15747443
225	0x3e2b2974	0.16715032
226	0x3e4db38a	0.2008802
227	0x3e2483ef	0.16065954
228	0xbe500f01	-0.20318224
229	0xbe40fafa	-0.1884574
230	0x3df8cdc8	0.12148625
231	0x3e714197	0.23560177
232	0xbe5b52a0	-0.21418238
233	0xbdb9d163	-0.090731405
234	0x3cd5ea88	0.02611281
235	0x3e4e12c5	0.20124348
236	0xbe249304	-0.16071707
237	0x3e505d80	0.20348167
238	0x39e7d4f9	0.0004421843
239	0x3daff03a	0.085907415
240	0xbe6c82ca	-0.23096767
241	0x3b137ac3	0.0022503592
242	0xbc8ae0bc	-0.016952865
243	0xbe5411a0	-0.20709848
244	0xbe35160e	-0.17684194
245	0xbdd587bf	-0.10426282
246	0xbe0dcb1c	-0.13847011
247	0x3e64e1ed	0.22351809
248	0xbe6e59a7	-0.23276387
249	0xbdcc488d	-0.099747755
250	0xbdaa0fd4	-0.083038
251	0x3dfabd4f	0.12243139
252	0xbde85e52	-0.11346115
253	0xbdaca805	-0.08430485
254	0xbe58bae2	-0.2116504
255	0xbe232637	-0.15932547

bias f4 [16]
0	0xbd8fd45d	-0.07022927
1	0xbdcdbdf2	-0.10045995
2	0x3e0f1094	0.13971168
3	0xbc7956fc	-0.015218493
4	0xbe5303e1	-0.20606948
5	0x3e613192	0.21991566
6	0x3d0afef7	0.03393456
7	0xbe3ac825	-0.18240412
8	0xbe098a18	-0.13431585
9	0xbd91732c	-0.071020454
10	0x3e0c3a4d	0.13694115
11	0xbe4480c3	-0.19189744
12	0x3d9ccacc	0.07655868
13	0xbdfab034	-0.12240639
14	0x3dcdcee2	0.100492254
15	0x3e660c54	0.2246564

weight f4 [16, 16]
0	0x3cc4af08	0.024009243
1	0xbe3785e4	-0.17922169
2	0xbd397629	-0.045278702
3	0x3df39574	0.1189374
4	0xbe5995ab	-0.212485
5	0x3d81ed2b	0.06344064
6	0x3e256baa	0.16154352
7	0x3e7bdeb5	0.24596675
8	0x3e668e9c	0.22515339
9	0x3e63e405	0.22254951
10	0x3e3ba6f6	0.1832541
11	0x3dc21a3c	0.0947766
12	0xbe26e188	-0.16296971
13	0xbe0b7ddd	-0.13622232
14	0xbe5943f5	-0.2121733
15	0xbdd1ec56	-0.10250156
16	0xbcd60ba5	-0.0261286
17	0xbe2a1423	-0.16609244
18	0x3db25fc9	0.08709676
19	0xbe5351b2	-0.20636633
20	0x3d3589b5	0.04432078
21	0xbe7af4e3	-0.2450748
22	0x3e355e6d	0.17711802
23	0xbceae99a	-0.028675843
24	0x3e0cf288	0.13764393
25	0x3e0953dc	0.13410896
26	0xbcf9121f	-0.030404149
27	0xbe81e8a3	-0.253728
28	0x3d9d7fdc	0.07690403
29	0x3e40f448	0.18843186
30	0xbe14752e	-0.14497826
31	0xbdaaa7cb	-0.08332785
32	0xbd7444f2	-0.059636064
33	0x3d95e788	0.07319552
34	0x3da58ebb	0.08083864
35	0x3d49c437	0.04925939
36	0x3e535169	0.20636524
37	0xbe0f747a	-0.14009276
38	0x3a13cf31	0.0005638479
39	0x3e6cdf79	0.23132123
40	0xbcbb2bbb	-0.022848
41	0x3d12d0bc	0.035843596
42	0x3e5ac939	0.21365823
43	0xbe5a4cfa	-0.21318427
44	0x3de035c5	0.10947756
45	0x3daddaa0	0.08488965
46	0x3e4cda07	0.20005046
47	0xbe14cea0	-0.14531946
48	0x3e07fa42	0.1327906
49	0x3e396a78	0.18107021
50	0xbd60e7ed	-0.05490868
51	0xbda286ac	-0.07935843
52	0x3e2aacb5	0.16667445
53	0x3d472c2e	0.048626117
54	0x3dd246b8	0.10267395
55	0x3e1e84f8	0.15480411
56	0x3d07841d	0.033084977
57	0x3d5b87a6	0.05359616
58	0xbe0de8cc	-0.13858336
59	0xbe3a098e	-0.18167707
60	0xbe14cc7b	-0.14531128
61	0xbbba7d00	-0.0056911707
62	0xbdca19db	-0.09868213
63	0x3e528e20	0.20562029
64	0x3e5ea8e6	0.21744117
65	0x3ca4a4aa	0.02009805
66	0xbe24b2d8	-0.16083848
67	0xbe3b9776	-0.18319497
68	0x3e3964e4	0.18104893
69	0xbe4e701a	-0.20159951
70	0xbe197775	-0.14986975
71	0xbe2d544b	-0.16926686
72	0xbdcba5e8	-0.099437535
73	0xbe6b5574	-0.22981817
74	0x3e62465c	0.22097152
75	0x3d787d19	0.060666177
76	0x3d0731be	0.033006422
77	0xbdeb96b3	-0.11503353
78	0x3e6315c4	0.22176272
79	0x3e5b72af	0.21430467
80	0xbd48f69f	-0.04906332
81	0xbc22a477	-0.009926907
82	0xbd8ef7aa	-0.06980832
83	0x3ded344f	0.11582243
84	0x3e554667	0.20827638
85	0xbe1cfb8f	-0.15330337
86	0xbe83afed	-0.25720158
87	0xbe09fff6	-0.13476548
88	0xbbc2fdac	-0.00595065
89	0x3d82e8b9	0.063920446
90	0xbdf620fc	-0.1201801
91	0x3e24559c	0.16048282
92	0x3d736972	0.059426732
93	0xbe61a1f7	-0.22034441
94	0xbdbec142	-0.09314205
95	0x3d3e33a1	0.046435956
96	0x3db2bb7e	0.087271675
97	0xbe230949	-0.15921511
98	0xbe1b5325	-0.15168436
99	0xbe1c2408	-0.1524812
100	0xbdb77bda	-0.0895917
101	0xbd888ce8	-0.06667501
102	0xbd1973d3	-0.037463974
103	0xbe00295d	-0.12515779
104	0x3e722d46	0.23650083
105	0x3da8a7ba	0.08235116
106	0xbe5d9000	-0.21636963
107	0xbbd0baa8	-0.0063699074
108	0xbdf0164c	-0.11723003
109	0x3e12a4e6	0.14320716
110	0xbd259930	-0.040429294
111	0x3df25e49	0.1183439
112	0x3e389835	0.18026812
113	0x3e6e16f4	0.23250943
114	0x39b675be	0.0003480147
115	0x3c85dca7	0.016340567
116	0xbe8244f1	-0.25443223
117	0xbd7f526f	-0.062334474
118	0xbe6cfd36	-0.23143467
119	0xbe2b5ce4	-0.16734654
120	0xbe27b6ec	-0.16378373
121	0x3e40019c	0.18750614
122	0x3d6eff40	0.058348894
123	0x3d25e9eb	0.040506285
124	0xbd96ef24	-0.07369831
125	0xbda38ce4	-0.07985857
126	0x3e01b82a	0.1266791
127	0xbc5b5fa3	-0.013389501
128	0xbe5f4a16	-0.21805605
129	0xbe139699	-0.14412917
130	0xbdce2655	-0.10065905
131	0x3de8fb82	0.11376096
132	0x3e156688	0.14589894
133	0x3e42a551	0.19008376
134	0xbd59bda3	-0.053159367
135	0x3dc6d6fb	0.09708973
136	0x3e4b9c55	0.19883855
137	0x3dac3fae	0.084105834
138	0xbdfdbc24	-0.123894006
139	0xbe5ff473	-0.21870594
140	0xbe4d9ad3	-0.20078592
141	0xbe1a862b	-0.15090244
142	0xbd3e854a	-0.046513833
143	0xbd1e7ea6	-0.038695
144	0x3e1a4fff	0.15069579
145	0x3dfa1888	0.1221171
146	0xbbb915be	-0.005648344
147	0x3e2df05d	0.16986223
148	0x3d3bc742	0.045844324
149	0xbd98cc35	-0.074608244
150	0x3cd0f2ee	0.025506463
151	0x3d25860a	0.040411033
152	0xbe70f460	-0.23530722
153	0xbe1c225c	-0.15247482
154	0x3b3f2645	0.0029167098
155	0x3d359b8c	0.044337794
156	0xbde20e68	-0.11037904
157	0xbd618ad7	-0.05506405
158	0xbe5e7f39	-0.21728219
159	0x3e167f44	0.14696985
160	0xbdec3927	-0.115343384
161	0x3d8c6ac8	0.068563044
162	0x3bbe2d54	0.0058037434
163	0x3d9782df	0.073980086
164	0xbc4a5301	-0.012348891
165	0x3e1271e5	0.1430126
166	0x3e5ab92e	0.21359703
167	0xbc055390	-0.008137599
168	0x3e42f0a6	0.19037113
169	0x3d925ff2	0.07147206
170	0xbd5a5249	-0.05330113
171	0xbe09a905	-0.13443382
172	0xbe3f33af	-0.1867206
173	0xbcd14a1b	-0.025548032
174	0xbddcab45	-0.107748546
175	0x3d85dc48	0.06536156
176	0xbe52ba5c	-0.20578903
177	0x3d89b67c	0.06724259
178	0x3d96c105	0.07361034
179	0x3d7bb5a4	0.061452523
180	0xbd4863c6	-0.048923276
181	0xbe45a5df	-0.19301556
182	0x3dda36ff	0.10655021
183	0x3d44d162	0.048051246
184	0xbdf6a3b5	-0.120429434
185	0x3dbdb2af	0.09262597
186	0xbdff81f7	-0.12475961
187	0x3cf3a61f	0.029742299
188	0x3b239128	0.0024958346
189	0x3e1f1e8f	0.15539001
190	0xbde07c2f	-0.10961186
191	0x3d6a4337	0.057193007
192	0x3c487c65	0.012236689
193	0x3dc43bba	0.095817044
194	0x3e1613cc	0.1465599
195	0xbcb879ce	-0.022519019
196	0xbd109afe	-0.035304062
197	0xbde30914	-0.11085716
198	0xbe47170b	-0.19442384
199	0x3d508ae2	0.0509137
200	0xbe580a0c	-0.21097583
201	0xbe88211c	-0.2658776
202	0x3dbf24dc	0.09333202
203	0xbd459018	-0.04823312
204	0x3e115ea6	0.14196262
205	0xbc3ddaa7	-0.011587775
206	0xbdeb32a0	-0.11484265
207	0xbd157c0b	-0.03649525
208	0xbe0d37e4	-0.13790852
209	0xbdbdeab5	-0.092732824
210	0xbd84779f	-0.064681284
211	0x3d14611a	0.036225416
212	0x3e5a1cf5	0.21300109
213	0x3e455563	0.19270854
214	0x3e43221b	0.19055979
215	0x3e1c62f5	0.15272124
216	0x3ddb0f00	0.106962204
217	0xbe4dce7d	-0.200983
218	0xbe5bbab6	-0.21457943
219	0x3d8f9776	0.07011311
220	0xbd9abd74	-0.075556666
221	0xbe622067	-0.22082673
222	0x3cc4a2a6	0.024003338
223	0xbce1f86a	-0.027584273
224	0x3e67a5f1	0.22621895
225	0xbe1f40e0	-0.15552092
226	0xbd0fbbc9	-0.035091195
227	0x3e699e68	0.22814333
228	0x3df35119	0.118807025
229	0xbc21b6bc	-0.009870227
230	0xbc831c8c	-0.016004823
231	0xbe07bab6	-0.13254818
232	0x3dd6f6a1	0.104962595
233	0xbe31ed4b	-0.17375676
234	0x3dd0423a	0.10168882
235	0x3e645a20	0.22300005
236	0xbe5d7fa0	-0.21630716
237	0xbd9a2810	-0.075271726
238	0xbd843190	-0.06454766
239	0xbd8d8186	-0.0690947
240	0xbdb60e69	-0.08889467
241	0x3ddc2e04	0.10750964
242	0xbd9afa96	-0.07567327
243	0x3e45d298	0.19318616
244	0xbdee9ab6	-0.116506025
245	0xbd8284f4	-0.06373015
246	0xbd288c26	-0.04114928
247	0x3e82361a	0.254319
248	0xbe2c11c1	-0.16803648
249	0x3e0d7128	0.13812697
250	0xbdf4269f	-0.11921429
251	0x3e658f72	0.22418001
252	0x3ce93713	0.028468644
253	0x3e27162d	0.16317053
254	0x3e0fcd7c	0.1404323
255	0x3e644340	0.22291279

bias f4 [16]
0	0x3e462e58	0.19353616
1	0x3ca58ca0	0.020208657
2	0x3dfdb05c	0.123871535
3	0xbdc882cd	-0.09790573
4	0xbc28d2ce	-0.010304166
5	0x3dd68c98	0.10476035
6	0x3d80ded7	0.06292503
7	0x3e0f03fb	0.13966362
8	0x3a5ee1ac	0.00085022557
9	0xbe4c38bb	-0.19943516
10	0x3e3e9e7e	0.18615147
11	0x3e2df895	0.16989358
12	0xbe2cf3a3	-0.16889815
13	0xbcd8981d	-0.02643972
14	0xbdca7dbe	-0.09887265
15	0x3d74871d	0.059699167

weight f4 [16]
0	0x3f80f18f	1.0073718
1	0x3f7dc099	0.99122006
2	0x3f7a10db	0.9768197
3	0x3f7dd3af	0.9915113
4	0x3f7ffacb	0.99992055
5	0x3f7bdca2	0.98383534
6	0x3f80ae1b	1.0053133
7	0x3f844335	1.033301
8	0x3f8183bb	1.0118326
9	0x3f7acbf3	0.9796745
10	0x3f80d6bf	1.0065535
11	0x3f81dd23	1.014561
12	0x3f822bcc	1.0169616
13	0x3f7dd93c	0.991596
14	0x3f7b99ef	0.9828176
15	0x3f7f11ee	0.99636734

bias f4 [16]
0	0x3b430c1e	0.002976186
1	0xba91d65c	-0.0011126506
2	0x39b0a006	0.00033688563
3	0xbbd778dc	-0.006575687
4	0xbc8fa3ec	-0.017534219
5	0xbc5e7ca2	-0.013579519
6	0xbc42c3b1	-0.011887477
7	0xbb71f39e	-0.0036918889
8	0xbcb59ec4	-0.022170432
9	0x3bd96ea5	0.0066355043
10	0x3c279c68	0.010230161
11	0x3ca9e1bd	0.020737523
12	0xbb7100b0	-0.0036774091
13	0xb79b726b	-1.853072e-05
14	0x3baade8e	0.005214519
15	0x3c8105a2	0.015749756

running_mean f4 [16]
0	0x3eb1fd63	0.3476363
1	0xbe30926f	-0.1724336
2	0x3d9af9f4	0.07567206
3	0xbe973fff	-0.29541013
4	0x3bffeba8	0.007810075
5	0x3de6350c	0.11240587
6	0xbe208a47	-0.15677749
7	0x3dd3d124	0.10342625
8	0xbd9adbfb	-0.07561489
9	0xbe857441	-0.26065257
10	0x3ec107c9	0.37701252
11	0x3d8394a6	0.06424837
12	0xbd7424b4	-0.059605315
13	0x3d95e424	0.07318905
14	0xbdbaed81	-0.091273315
15	0xbd3fa39c	-0.04678689

running_var f4 [16]
0	0x3ecdeecc	0.4022125
1	0x3ef928cc	0.48663938
2	0x3f32df62	0.69872105
3	0x3ee82bdf	0.4534597
4	0x3f2448d0	0.64173603
5	0x3ef6f1c5	0.4823133
6	0x3f3f5991	0.7474604
7	0x3f6511b2	0.89480126
8	0x3f85c02d	1.0449272
9	0x3f729f74	0.94774556
10	0x3f32edf8	0.6989436
11	0x3efdfcdd	0.49606982
12	0x3f65530d	0.8957985
13	0x3f2a7299	0.6658111
14	0x3f1e6c38	0.6188388
15	0x3ee9dc92	0.45676094
