models/patchTST.pt (torch, 325166 bytes, 69 tensors)

weight f4 [1, 11, 1]
0	0x3f800000	1.0
1	0x3f800000	1.0
2	0x3f800000	1.0
3	0x3f800000	1.0
4	0x3f800000	1.0
5	0x3f800000	1.0
6	0x3f800000	1.0
7	0x3f800000	1.0
8	0x3f800000	1.0
9	0x3f800000	1.0
10	0x3f800000	1.0

bias f4 [1, 11, 1]
0	0x00000000	0.0
1	0x00000000	0.0
2	0x00000000	0.0
3	0x00000000	0.0
4	0x00000000	0.0
5	0x00000000	0.0
6	0x00000000	0.0
7	0x00000000	0.0
8	0x00000000	0.0
9	0x00000000	0.0
10	0x00000000	0.0

sub f4 [2, 11, 1]
0	0xbf88e0af	-1.0693568
1	0x3e95609a	0.29175264
2	0x3f008342	0.50200284
3	0x3e04a7bf	0.12954615
4	0xbf28bacf	-0.6591005
5	0x3f0087ea	0.5020739
6	0x3e047659	0.12935771
7	0xbf28a20e	-0.65872276
8	0x3f009dba	0.5024067
9	0x3e08b65d	0.13350816
10	0xbf28a62d	-0.65878564
11	0xbf87a629	-1.0597583
12	0x3e8f618a	0.28004104
13	0x3efce543	0.49393663
14	0x3e0a973a	0.13534251
15	0xbf279cc0	-0.65473557
16	0x3efcee77	0.49400684
17	0x3e0a65a2	0.13515332
18	0xbf278412	-0.654359
19	0x3efd19fe	0.49433893
20	0x3e0ea427	0.13929807
21	0xbf278832	-0.6544219

std f4 [2, 11, 1]
0	0x3e938ab4	0.2881676
1	0x3f8c69a6	1.0969741
2	0x3f94655d	1.1593434
3	0x3f6aa9c0	0.9166527
4	0x3ee31d98	0.44358516
5	0x3f9469aa	1.1594746
6	0x3f6aa1fa	0.91653407
7	0x3ee30f9e	0.44347852
8	0x3f946ce4	1.1595731
9	0x3f6a66e1	0.9156323
10	0x3ee30e09	0.44346645
11	0x3e938ab4	0.2881676
12	0x3f8c80b6	1.097678
13	0x3f947a90	1.1599903
14	0x3f677f8a	0.90428984
15	0x3ee40163	0.44532308
16	0x3f947edd	1.1601216
17	0x3f6777de	0.9041728
18	0x3ee3f35b	0.44521603
19	0x3f948218	1.1602201
20	0x3f673d92	0.90328324
21	0x3ee3f1c4	0.4452039

W_pos f4 [42, 16]
0	0xbcd046c5	-0.02542437
1	0xbca1c5a7	-0.019747568
2	0xbd267c9e	-0.040646188
3	0xbd22130f	-0.039568957
4	0x3c87f6bc	0.016597144
5	0x3d0ae1e9	0.03390685
6	0xbd0d36a7	-0.03447595
7	0xbb0d4add	-0.0021559515
8	0x3c939e4b	0.018019816
9	0x3bf5a7e6	0.0074968217
10	0x39be841f	0.00036338062
11	0x3ccde7a2	0.025134865
12	0x3c629d02	0.013831379
13	0x3ce0cc36	0.027441125
14	0xbb88dd8f	-0.0041768025
15	0xbba35112	-0.0049840296
16	0x3acfa745	0.0015842697
17	0xbc9dfd0a	-0.019285697
18	0xbd5a9282	-0.053362377
19	0xbd2d379f	-0.042289373
20	0x3c838979	0.016056763
21	0x3c3b1630	0.011418864
22	0x3b53966e	0.0032285708
23	0x3d20fbbd	0.039302576
24	0x3d0e366b	0.034719866
25	0x3c1c700f	0.009548201
26	0xba258938	-0.00063146977
27	0x3cfebf93	0.03109721
28	0x3ce23183	0.0276115
29	0x3c61ac39	0.013773971
30	0x3cd71c7e	0.026258703
31	0xbd453825	-0.048149247
32	0xbca15acf	-0.019696621
33	0xbcda3ee0	-0.02664131
34	0xbd1b73ba	-0.037952162
35	0xbc5bce11	-0.013415829
36	0x3c976d2a	0.01848467
37	0x3c53b564	0.012921665
38	0xbcaa34ee	-0.020777192
39	0xbc53265c	-0.012887564
40	0x3cfae075	0.030624608
41	0xb8a0dcb9	-7.670507e-05
42	0xbcb3bb49	-0.02193989
43	0x3c420ecb	0.011844347
44	0xbc1ce24f	-0.009575441
45	0x3cc5e299	0.024155902
46	0x3c922666	0.017840575
47	0xbbc1fa2b	-0.005919715
48	0xbcb4cb44	-0.02206958
49	0xbc82807d	-0.015930409
50	0xbc8607ff	-0.016361235
51	0xbd1405d4	-0.03613837
52	0x3c66f37c	0.014096137
53	0xba684468	-0.0008860291
54	0xbce10bd7	-0.027471466
55	0xbc52a3d5	-0.012856443
56	0x3cbfe6fc	0.023425572
57	0xbbaf6d92	-0.005353638
58	0xbcd48135	-0.025940517
59	0x3cff79ac	0.031185947
60	0x3ca969c8	0.020680323
61	0x3c5abbeb	0.013350467
62	0x3bca414d	0.0061723352
63	0xbd18b1e3	-0.03727902
64	0xbcd3cda9	-0.025854902
65	0xbcc7a84b	-0.02437224
66	0x3a8ee9fc	0.0010903473
67	0xbcd25b2e	-0.025678243
68	0xbae6bf92	-0.00176047
69	0x3c521edb	0.012824739
70	0xbc2ebacb	-0.010664652
71	0xbc648cfe	-0.013949631
72	0x3c56d32b	0.01311187
73	0x3b158f64	0.0022821063
74	0x3a48539f	0.0007641855
75	0x3c1ba62d	0.009500069
76	0x3bd47d05	0.00648463
77	0x3d20cb68	0.039256483
78	0x3d00ba7a	0.031427838
79	0xbd271a41	-0.040796522
80	0xbc7d0d82	-0.015445115
81	0xbbccd228	-0.0062506385
82	0x3ca49800	0.02009201
83	0x3b8bf363	0.0042709573
84	0x3ce10202	0.027466778
85	0x3cc7f6e9	0.024409728
86	0xbcbe3ed9	-0.023223327
87	0x3c61eb8b	0.013789068
88	0x3c43e2e2	0.011955949
89	0xbc902786	-0.017596971
90	0xbc87388d	-0.016506458
91	0x3c14827a	0.009064311
92	0xbb50cea2	-0.0031861444
93	0x3c972366	0.018449496
94	0xbb9d342a	-0.004797478
95	0xbd1169bf	-0.035501238
96	0xbc23c065	-0.009994601
97	0xbc8336c2	-0.016017321
98	0x3c4d1f80	0.012519717
99	0xbc1536b0	-0.009107277
100	0xbc1660db	-0.009178366
101	0xba6d20e6	-0.0009045735
102	0xbc47a3a6	-0.012185013
103	0x3c9cb290	0.019128114
104	0xbc29d4d2	-0.010365682
105	0xbc603b5b	-0.013686026
106	0x3b8f113f	0.0043660696
107	0x3ca95d30	0.020674318
108	0x3b2a3b5d	0.0025975325
109	0x3b5efd25	0.0034025398
110	0x3bf7f36b	0.0075668595
111	0xbc96ef7a	-0.018424738
112	0xbce32827	-0.027729107
113	0xbc7539bf	-0.014967381
114	0xbc19cc7e	-0.009387134
115	0xbc2ffc14	-0.010741252
116	0x3beef114	0.0072919223
117	0x3ce1ae74	0.027549006
118	0xbcb38ff2	-0.021919224
119	0x3d00d1dd	0.03145014
120	0xba86e8d4	-0.0010292777
121	0xb9326d49	-0.00017016115
122	0x3c1007ec	0.008790951
123	0xbc26f500	-0.0101902485
124	0xbc790735	-0.015199472
125	0x3d0121ac	0.031526253
126	0xbb5fde7b	-0.0034159708
127	0xbbb495f2	-0.005511039
128	0x3b60b701	0.0034288766
129	0x3bb41d33	0.005496645
130	0xbc503853	-0.012708741
131	0xbc836cdb	-0.016043117
132	0xbb9124e5	-0.004429447
133	0x362accd4	2.54512e-06
134	0xbcaa9eb2	-0.020827625
135	0x3cc30429	0.023805695
136	0x3cbd275e	0.02309006
137	0xbc94f866	-0.018184852
138	0xbc53369e	-0.01289144
139	0xbc4cc709	-0.012498626
140	0xbc369d42	-0.011145892
141	0xbc13847f	-0.0090037575
142	0xbb1ee13e	-0.0024243142
143	0xbd27c1cb	-0.0409563
144	0xbcc0ee4f	-0.023551134
145	0xbcad52df	-0.02115768
146	0x3baad12c	0.0052129235
147	0xbd048500	-0.0323534
148	0x3afb8ceb	0.0019191777
149	0xbc838537	-0.016054733
150	0x3aa9e99b	0.0012963297
151	0xbb7b18e9	-0.0038314408
152	0x3b4c6bad	0.003119211
153	0xbbbc5d85	-0.005748453
154	0xb90e2502	-0.00013555962
155	0x3c183b88	0.009291537
156	0x3c3a00fa	0.011352772
157	0x3d0b0d30	0.033948123
158	0xbbf32ced	-0.007421127
159	0xbcf5f49e	-0.03002387
160	0xbcf4d5a4	-0.029887028
161	0xbbc53f7c	-0.006019531
162	0xbbe52efd	-0.006994127
163	0xbcb6bfb1	-0.022308202
164	0xbc35572a	-0.011068145
165	0x3c0f6a59	0.008753383
166	0xbd2f4fff	-0.0428009
167	0xbcd6fd20	-0.026243746
168	0x3cc958d6	0.024578493
169	0xbcda286b	-0.0266306
170	0xbc36c656	-0.011155685
171	0x3cac8922	0.021061484
172	0xbc40b9fd	-0.011763093
173	0x3ca3fae7	0.0200171
174	0xbcd4a2c8	-0.025956526
175	0xbc408077	-0.011749378
176	0xbcd9deeb	-0.026595553
177	0xbac98d1d	-0.0015377138
178	0xbc00a7dd	-0.007852522
179	0xbc9b1b9e	-0.018934067
180	0xbc8108e8	-0.015751317
181	0x3c958cb2	0.018255565
182	0x3c51cfec	0.01280592
183	0xbbe18e1b	-0.0068833954
184	0xb92cee91	-0.00016492071
185	0x3cc60f24	0.024177141
186	0x3bb0eba3	0.005399184
187	0xbc23a32a	-0.009987632
188	0xbca019f4	-0.019543625
189	0xbcc2c88b	-0.023777267
190	0xbc2db24a	-0.010601589
191	0xbd3364b4	-0.04379721
192	0xbb25d484	-0.002530367
193	0xbcd26a67	-0.025685502
194	0xba519fb7	-0.00079965167
195	0xbb9d36ad	-0.0047977776
196	0xbcbb2cac	-0.02284845
197	0x3c575ac7	0.013144202
198	0xb90774ea	-0.00012918157
199	0x3bffb7d7	0.007803898
200	0xbc542c6f	-0.012950047
201	0xbbcee4d5	-0.0063139
202	0xbb1c486b	-0.0023846875
203	0x3cdf5e2b	0.027266582
204	0x3c55b264	0.01304302
205	0xbaf237d3	-0.0018479772
206	0xbc01e4e1	-0.007928104
207	0x3bbdeff5	0.0057964274
208	0xbc7362b7	-0.014855078
209	0x3cce0d8b	0.025152942
210	0x3b9f04ae	0.004852853
211	0xbb168726	-0.0022968738
212	0x3cea4fc2	0.028602485
213	0x3c13a946	0.009012526
214	0x3b988a76	0.0046551777
215	0x3ba0225d	0.004886909
216	0xbccdffc3	-0.02514637
217	0x3c2cdd61	0.010550828
218	0x3bfbf11e	0.0076886555
219	0x3ca76119	0.020432042
220	0xbc124ada	-0.008928979
221	0x3cbb160f	0.022837667
222	0x3cc75b27	0.024335457
223	0x3b680582	0.0035403674
224	0x3a88bd3f	0.0010432376
225	0x3c9e3757	0.019313497
226	0x3ca840a3	0.020538634
227	0xbc1ac8e8	-0.009447314
228	0x3c8899b7	0.01667486
229	0xba2df201	-0.00066354877
230	0x3caa6905	0.02080203
231	0x3c367782	0.011136891
232	0xbbc8f556	-0.006132762
233	0x3be0c5d3	0.00685952
234	0x3c573a05	0.0131363915
235	0x3b22f929	0.002486775
236	0xbbb5d567	-0.005549121
237	0xbbc77996	-0.006087492
238	0xbc807826	-0.015682291
239	0xbcc5f918	-0.024166629
240	0xbceae2e8	-0.02867265
241	0x3c9e29d0	0.019307047
242	0x3c1abe0c	0.009444725
243	0xbcaa76c0	-0.020808578
244	0x3cfe3396	0.031030457
245	0x3bf46256	0.0074580116
246	0xbba1049c	-0.0049138796
247	0x3cfcb9dc	0.030850343
248	0xbcc23589	-0.023707168
249	0xbab75f90	-0.0013990272
250	0xbb2bbc70	-0.0026204847
251	0x3d0ca944	0.03434111
252	0xbce475ac	-0.027888142
253	0xbc9d1693	-0.019175803
254	0x3ba0c52a	0.0049063163
255	0xbc34daba	-0.011038477

weight f4 [16, 24]
0	0x3d8e9f38	0.06963962
1	0x3e54aa78	0.20768154
2	0x3e048aa9	0.1294352
3	0x3e57a2bc	0.21058172
4	0x3e47052a	0.19435564
5	0x3dc6f753	0.09715142
6	0x3df39d5b	0.118952475
7	0x3d2ecd09	0.042676006
8	0x3e49ba13	0.19699888
9	0x3d67d6af	0.056601223
10	0x3e084f73	0.13311557
11	0xbde9e594	-0.11420742
12	0x3de31ba8	0.110892594
13	0xbe23a97e	-0.15982625
14	0x3d46e0bc	0.048554167
15	0x3df8a46d	0.12140737
16	0x3dc0d67f	0.09415912
17	0x3e6c2e23	0.23064475
18	0xbad1c9d9	-0.001600559
19	0x3c963551	0.01833597
20	0x3d54e726	0.051978253
21	0xbbd00d80	-0.0063492656
22	0xbe1a24ca	-0.15053096
23	0x3e219a71	0.15781571
24	0x3d0b9ded	0.034086157
25	0x3c66d8b3	0.014089751
26	0xbe2cf903	-0.16891865
27	0xbe3225e6	-0.1739727
28	0x3db57ab1	0.08861292
29	0xbe1aa1b6	-0.1510075
30	0xbe1d35a7	-0.15352498
31	0xbe161ea3	-0.14660124
32	0x3e120b27	0.14262067
33	0x3c82484d	0.015903616
34	0xbe13fd50	-0.144521
35	0x3dd5ad42	0.10433437
36	0xbd88a7d0	-0.06672633
37	0x3e39590b	0.18100373
38	0xbdcc71bc	-0.099826306
39	0xbe1233c8	-0.14277565
40	0xbe290118	-0.16504323
41	0x3d1717fa	0.0368881
42	0x3c175d46	0.009238547
43	0x3d2f141f	0.0427438
44	0x3e3ec9fe	0.18631741
45	0x3c88072c	0.016604982
46	0x3e0e2355	0.13880666
47	0x3deefee1	0.11669708
48	0xbd973059	-0.073822685
49	0x3cb0308b	0.021507522
50	0x3e0b8d00	0.13628006
51	0xbd79d256	-0.060991608
52	0x3e4a279b	0.19741671
53	0xbd1f4b8f	-0.038890418
54	0x3d4e36d8	0.05034527
55	0x3e28f574	0.16499883
56	0x3c38bbbb	0.011275227
57	0x3e3373d3	0.17524652
58	0xbda234a6	-0.07920198
59	0xbd628e59	-0.055311535
60	0x3d56d476	0.052448712
61	0xbd13ff54	-0.03613217
62	0x3e66afe8	0.2252804
63	0x3def9638	0.11698574
64	0x3e616f6f	0.22015165
65	0xbe2da81c	-0.1695866
66	0xbbc5b7f0	-0.00603389
67	0xbe17c58e	-0.14821455
68	0x3e588786	0.21145448
69	0xbe0bb086	-0.13641557
70	0x3d0f9931	0.035058204
71	0x3e137dd4	0.14403468
72	0x3d48bd23	0.0490085
73	0xbd0f9835	-0.035057265
74	0x3e486086	0.19568071
75	0xbd4b6e77	-0.049665894
76	0x3e153a67	0.1457306
77	0x3e47f883	0.19528393
78	0xbdd8b9ad	-0.1058229
79	0x3ddba981	0.1072569
80	0xbd74dc1e	-0.059780233
81	0x3db49697	0.08817785
82	0x3c42f7fd	0.011899945
83	0x3c70830c	0.0146796815
84	0xbcd8b070	-0.02645132
85	0xbdcfe36d	-0.101508
86	0xbda5a57f	-0.080882065
87	0x3e4423a4	0.19154221
88	0x3dbd9670	0.09257209
89	0x3e3de345	0.18543728
90	0x3dbc0240	0.09180117
91	0x3e41ab16	0.1891292
92	0x3e1f0802	0.15530398
93	0x3e0974ed	0.1342351
94	0x3e54ae21	0.2076955
95	0x3d6eeb40	0.05832982
96	0xbd9e9857	-0.077439
97	0x3d09c180	0.0336318
98	0x3deb3ef1	0.114866145
99	0xbd7ef5f6	-0.062246285
100	0xbe3a3b0e	-0.1818659
101	0x3dc4a751	0.096022256
102	0xbe3a48ba	-0.18191805
103	0x3cb1e550	0.02171579
104	0x3e21b3fb	0.15791313
105	0xb7f154e1	-2.8768964e-05
106	0xbd520988	-0.05127862
107	0xbe40c306	-0.18824396
108	0x3d0209a1	0.031747464
109	0x3d14f72a	0.036368527
110	0xbe3e03f9	-0.18556203
111	0x3dc643d3	0.09680905
112	0x3cd0ebb4	0.025503017
113	0x3e28a120	0.16467714
114	0xbe2ea716	-0.17055926
115	0xbd078cd6	-0.033093296
116	0xbcac86a5	-0.021060297
117	0x3ce3da1a	0.02781396
118	0xbddf917e	-0.10916422
119	0xbe216a0d	-0.15763111
120	0xbd14a2ef	-0.036288198
121	0xbdbdbb7d	-0.09264276
122	0xbe162248	-0.14661515
123	0xbe5fc05e	-0.21850726
124	0x3c0ca7f2	0.008584963
125	0xbe45d978	-0.19321239
126	0xbe13d9c2	-0.14438537
127	0x3e25caf5	0.16190703
128	0x3c5850a6	0.013202822
129	0x3e1320ef	0.14368032
130	0x3ca602cb	0.020265004
131	0x3d6c6061	0.0577091
132	0xbe292f60	-0.16521978
133	0xbe50f129	-0.20404495
134	0xbd9e57b5	-0.077315725
135	0x3e0db20c	0.1383745
136	0xbe124e99	-0.14287795
137	0xbd0f6c59	-0.035015438
138	0xbe5486c5	-0.20754535
139	0xbd49dd08	-0.049283057
140	0xbda7fb13	-0.082021855
141	0x3dc9bb40	0.09850168
142	0xbe21d0e0	-0.15802336
143	0xbcd52cee	-0.0260224
144	0xbe06ed2a	-0.13176408
145	0x3cfcc1b4	0.030854084
146	0xbe1ba386	-0.15199098
147	0x3deced7e	0.115687355
148	0x3d07b7c1	0.033134226
149	0x3e08c59e	0.13356635
150	0x3ded8d26	0.115991876
151	0xbdc96813	-0.09834304
152	0x3bdb5f04	0.0066946764
153	0x3e49eca7	0.19719182
154	0x3e0f6c5f	0.14006184
155	0xbdc9435b	-0.098273
156	0x3dca86d4	0.09888998
157	0x3d210ae6	0.039317034
158	0xbd9a150b	-0.07523545
159	0x3e409559	0.18806972
160	0x3e3e42a2	0.18580106
161	0x3e44edca	0.19231334
162	0xbe221af4	-0.15830594
163	0xbdd24c67	-0.10268479
164	0xbcf32bf3	-0.029684043
165	0xbd2ddb55	-0.0424455
166	0x3e266790	0.16250443
167	0x3de5e0b7	0.112245016
168	0xbe1e49c0	-0.15457821
169	0xbe2fbcc0	-0.17161846
170	0x3e0177a4	0.12643296
171	0x3e287592	0.164511
172	0xbdf31942	-0.11870052
173	0xbdb97e80	-0.09057331
174	0xbe3431b9	-0.17597093
175	0x3d6ced03	0.05784322
176	0xbdad0082	-0.084473625
177	0xbe3b4393	-0.18287496
178	0xbca1ec0b	-0.019765874
179	0xbe3a51ec	-0.18195313
180	0xbe12d4bb	-0.14338963
181	0xbc66fe22	-0.014098676
182	0x3ddbe863	0.107376836
183	0xbe19ce91	-0.15020205
184	0x3c31ac66	0.010844326
185	0xbe523985	-0.20529754
186	0xbc4649d1	-0.01210256
187	0xbbae674f	-0.005322374
188	0x3db11a77	0.08647626
189	0xbe53bd0d	-0.20677586
190	0x3e111810	0.14169335
191	0x3c560809	0.013063439
192	0xbdb9b753	-0.090681694
193	0x3e2765d1	0.16347434
194	0x3e37acc0	0.17936993
195	0x3e023f08	0.12719357
196	0xbccad5c8	-0.024760142
197	0x3c503e53	0.012710172
198	0xbe04eea5	-0.1298166
199	0xbe39a65c	-0.18129867
200	0xbe0d3a4c	-0.1379177
201	0x3e22f053	0.15911989
202	0x3dde41d9	0.10852403
203	0xbe438abb	-0.1909589
204	0x3c54186a	0.012945274
205	0x3e09d637	0.13460623
206	0xbe500a8c	-0.20316523
207	0xbe20807a	-0.1567401
208	0xbe3dd6cb	-0.18538968
209	0x3e237add	0.15964837
210	0xbe323476	-0.17402825
211	0x3a9ea329	0.0012103069
212	0x3d949d1e	0.0725653
213	0x3e0f4025	0.13989313
214	0xbe0757bf	-0.13217066
215	0x3d76b7a5	0.06023373
216	0x3c8a9528	0.016916826
217	0x3e41390b	0.18869416
218	0xbd00faa9	-0.03148905
219	0x3e217666	0.15767822
220	0xbe1c1455	-0.15242131
221	0xbe1e6798	-0.15469205
222	0x3d3f4841	0.046699766
223	0x3e408e7a	0.1880435
224	0x3e0aba62	0.13547662
225	0x3d517ffa	0.05114744
226	0xbd688f4e	-0.05677729
227	0x3c986980	0.018604994
228	0x3d2d853b	0.042363387
229	0x3d874da0	0.06606603
230	0x3d76cc90	0.06025368
231	0x3e365706	0.17806634
232	0xbe2502b7	-0.16114317
233	0x3e00537d	0.12531848
234	0x3d815a50	0.06316054
235	0x3e55c860	0.20877218
236	0x3e2bd197	0.16779171
237	0xbd85396a	-0.065050915
238	0x3e72476f	0.23660062
239	0x3d62307f	0.05522203
240	0x3e5d376e	0.21603176
241	0xbcdafb60	-0.026731193
242	0xbce74727	-0.02823217
243	0x3dffbdca	0.12487371
244	0x3e215eb2	0.1575878
245	0xbe1a12a6	-0.15046176
246	0x3e295de8	0.16539729
247	0x3e45764b	0.19283406
248	0x3d7d73c2	0.061877973
249	0x3abc4042	0.0014362412
250	0x3e3c07cc	0.1836235
251	0xbe307144	-0.17230707
252	0xbd903fbb	-0.070434056
253	0xbd82df43	-0.0639024
254	0xbd0ceeba	-0.034407355
255	0x3e111255	0.1416715

bias f4 [16]
0	0x3e4dc0de	0.20093104
1	0xbcfd6830	-0.03093347
2	0xbe18d696	-0.14925608
3	0xbd244fef	-0.040115293
4	0x3e25c952	0.16190079
5	0xbdd2299f	-0.10261845
6	0x3e4fe88a	0.2030355
7	0xbc916951	-0.017750414
8	0xbe07309b	-0.13202135
9	0xbe4a7901	-0.19772722
10	0x3da0caaf	0.07851159
11	0xbd3fb845	-0.046806592
12	0xbdd07da0	-0.10180211
13	0xbbdf38dc	-0.006812198
14	0xbe23ec3a	-0.16008082
15	0xbe32a558	-0.17445886

weight f4 [16, 16]
0	0x3e6f3761	0.23360969
1	0x3e64b7c6	0.22335729
2	0xbc974ec8	-0.018470183
3	0x3e28a237	0.1646813
4	0x3dae371f	0.08506607
5	0x3d805cbc	0.06267688
6	0x3c9a483e	0.018833276
7	0x3e35f0b6	0.17767605
8	0x3ddcb91f	0.107774965
9	0x3e11806c	0.14209145
10	0xbe3da791	-0.18520953
11	0x3d049f15	0.032378275
12	0x3d294383	0.04132415
13	0xbe119a77	-0.1421908
14	0x3cb49e83	0.02204824
15	0xbc91698e	-0.017750528
16	0xbe212fa5	-0.15740831
17	0x3d9a93db	0.075477324
18	0xbe7848cd	-0.24246521
19	0x3e4c7d5a	0.19969693
20	0x3c40e413	0.011773127
21	0xbe57b37c	-0.21064562
22	0x3d5f767c	0.054556355
23	0x3e8eea54	0.27913153
24	0x3dd23958	0.10264844
25	0xbe8892d4	-0.2667452
26	0xbe7bdc9a	-0.24595872
27	0x3d988db8	0.07448906
28	0x3dfd3e7d	0.12365434
29	0x3b6e160c	0.003632906
30	0x3e3ae729	0.18252243
31	0xbe12a61c	-0.14321178
32	0xbd86563c	-0.06559417
33	0xbe5a37ac	-0.213103
34	0x3e73d7a1	0.23812725
35	0x3e22622c	0.15857762
36	0x3e58dca8	0.21177924
37	0x3d8c1792	0.06840433
38	0x3e39f9bc	0.18161672
39	0xbd0f472c	-0.034979984
40	0x3e37f5a4	0.17964798
41	0x3c8b7014	0.017021216
42	0xbddcf6fb	-0.10789295
43	0xbda72e3e	-0.08163117
44	0x3e13ad89	0.14421667
45	0x3c8304fb	0.015993586
46	0xbe3d002f	-0.18457101
47	0x3e6832c2	0.22675613
48	0xbddd0aee	-0.107931
49	0xbe7d11b2	-0.24713781
50	0xbe46b200	-0.19403839
51	0xbe3f83fb	-0.1870269
52	0x3e5910c4	0.21197802
53	0xbe62e847	-0.2215892
54	0x3debaafd	0.11507223
55	0x3d7fefea	0.06248466
56	0x3e3e71e9	0.18598141
57	0x3e1c2cf0	0.15251517
58	0xbc07c3f0	-0.008286461
59	0x3d75285d	0.059852947
60	0xbdce2a66	-0.100666806
61	0xbdb94bda	-0.09047671
62	0x3b962c00	0.004582882
63	0xbe38786c	-0.18014687
64	0x3dc822d2	0.097722664
65	0x3e2cb9fe	0.16867825
66	0xbe2d9182	-0.16950038
67	0xbe90431e	-0.28176206
68	0x3deb4624	0.11487988
69	0x3e609255	0.21930821
70	0xbdfe2bbd	-0.12410686
71	0x3e47d642	0.19515327
72	0x3e29c489	0.16578878
73	0xbe773f9e	-0.24145362
74	0xbe2e2f50	-0.17010236
75	0xbe412ca5	-0.18864687
76	0x3d86c74b	0.06580981
77	0xbe0e9912	-0.13925579
78	0xbe4dabd9	-0.20085086
79	0x3da12378	0.07868093
80	0xbe8a16b8	-0.26970458
81	0x3e3ae408	0.1825105
82	0xbe0c0a9b	-0.1367592
83	0xbe8f8c0b	-0.28036532
84	0xbc100ed4	-0.008792598
85	0x3df7cf7b	0.12100121
86	0xbe1e03e7	-0.15431176
87	0x3df2273d	0.1182389
88	0xbe14e75e	-0.14541385
89	0x3d6221ed	0.055208135
90	0x3e3282b8	0.17432678
91	0xbc42c531	-0.011887834
92	0x3d8f33c7	0.069922976
93	0x3e0f9a21	0.1402364
94	0x3e882714	0.26592314
95	0xbe2317b9	-0.15927018
96	0xbc4e1961	-0.012579293
97	0x3e3707c1	0.17874052
98	0x3d0caa9a	0.034342386
99	0x3e4cc1e5	0.1999584
100	0xbe0a94bb	-0.13533299
101	0x3d6c21dd	0.057649482
102	0x3e53c0e5	0.20679052
103	0x3e1ae4a1	0.15126278
104	0x3cc944e0	0.024568975
105	0xbdb1b847	-0.08677726
106	0x3e592ca8	0.21208441
107	0xbe1e4aaa	-0.1545817
108	0xbdeab504	-0.11460307
109	0xbc39c2ac	-0.011337917
110	0x3d87f879	0.06639189
111	0x3e461fc3	0.19348054
112	0xbddf761b	-0.10911199
113	0x3d4222b7	0.047396388
114	0x3dadf9e0	0.084949255
115	0x3e40e869	0.18838657
116	0xbe04f76d	-0.1298501
117	0xbd7e550f	-0.062092837
118	0xbe1ad4d7	-0.15120254
119	0x3d89ea67	0.06734162
120	0xbe1c4257	-0.15259682
121	0xbd80c9ea	-0.06288512
122	0xbe850e69	-0.25987557
123	0xbd990092	-0.07470812
124	0xbcd9f020	-0.026603758
125	0xbdb0754c	-0.086161226
126	0x3dea0efe	0.11428641
127	0x3d572aa2	0.052530892
128	0xbe1fbfeb	-0.15600555
129	0xbe1a9e1e	-0.1509938
130	0x3e1b0f7c	0.15142626
131	0x3e71ba64	0.23606259
132	0x3e1f047a	0.15529051
133	0x3e6ed51e	0.23323485
134	0x3e585850	0.21127439
135	0xbdd256c9	-0.10270459
136	0x3e5261c8	0.20545113
137	0xbd76fae3	-0.060297858
138	0xbdab4052	-0.083618775
139	0x3dd0aa43	0.10188725
140	0xbdc71ee9	-0.097226925
141	0xbe367ac9	-0.17820276
142	0xbe4d4070	-0.20044112
143	0xbca59d73	-0.02021668
144	0x3ba14214	0.004921207
145	0x3e298e8b	0.16558282
146	0xbe6be652	-0.23037079
147	0x3e44a620	0.19203997
148	0x3e8075bc	0.25089824
149	0x3d44d08c	0.04805045
150	0x3db4ec13	0.0883409
151	0x3cae90f2	0.02130935
152	0xbe4647db	-0.19363348
153	0xbe1be693	-0.15224676
154	0x3d3bd718	0.045859426
155	0x3e96ce09	0.29454067
156	0xbce10c8c	-0.027471803
157	0xbe4480c6	-0.19189748
158	0xbe1c1969	-0.15244068
159	0xbd71abe2	-0.05900181
160	0xbd3a2c98	-0.045452684
161	0xbe72cd7b	-0.23711197
162	0x3dfd26f3	0.123609446
163	0x3cf315da	0.029673506
164	0xbdd4a017	-0.10382097
165	0x3e71283c	0.23550504
166	0x3e7a60dc	0.24451011
167	0xbcf16e45	-0.029471526
168	0xbe45a0b4	-0.19299585
169	0xbb1ccda7	-0.002392629
170	0x3e339ea3	0.17540984
171	0xbe531391	-0.20612933
172	0xbdbc423e	-0.09192322
173	0xbdfd7ea5	-0.12377671
174	0x3d722539	0.05911753
175	0x3e33a0ca	0.17541805
176	0xbc804c12	-0.015661273
177	0xbe473dd1	-0.19457175
178	0xbd9f2328	-0.077703774
179	0xbbe1a198	-0.0068857186
180	0x3e82d64e	0.25554127
181	0x3e79db11	0.24399973
182	0xbd49a198	-0.049226373
183	0xbe129a91	-0.14316775
184	0xbdf11360	-0.117712736
185	0xbe2d1c98	-0.16905439
186	0x3e20e937	0.15713964
187	0x3e73d380	0.2381115
188	0xbe84d79a	-0.2594574
189	0x3e8535bc	0.2601756
190	0xbd4903f6	-0.049076043
191	0x3e6008a1	0.21878292
192	0xbd43f47a	-0.047840573
193	0x3d6a86db	0.057257514
194	0x3d0289a6	0.031869553
195	0xbdf31b30	-0.1187042
196	0x3d6a13a5	0.05714764
197	0x3d845bf6	0.06462853
198	0x3d206f08	0.039168388
199	0xbd5d6ce0	-0.05405891
200	0x3e34b6a5	0.17647798
201	0xbca98f62	-0.020698253
202	0x3e229ce5	0.15880163
203	0xbd048c5a	-0.032360412
204	0x3e0eba9e	0.13938376
205	0xbe814a82	-0.25252157
206	0x3d9eabb4	0.077475935
207	0xbdcf86a1	-0.101331
208	0xbe5ad258	-0.21369302
209	0xbe3876b1	-0.18014027
210	0x3e66b90e	0.2253153
211	0xbe2bdcf2	-0.16783503
212	0x3e4701fc	0.1943435
213	0x3d7049dd	0.05866419
214	0x3d116a5b	0.03550182
215	0x3ca1cb1e	0.019750174
216	0x3e0f0bbc	0.1396932
217	0xbce7531c	-0.028237872
218	0xbd990166	-0.0747097
219	0x3d97241b	0.073799334
220	0xbd9998a1	-0.07499815
221	0xbd0d417d	-0.034486283
222	0x3d83ae2e	0.064297065
223	0x3e75a81f	0.23989914
224	0xbcef8934	-0.029240228
225	0xbde0df4f	-0.10980093
226	0x3d37046a	0.044681944
227	0xbdeb5be4	-0.11492136
228	0xbc464ab5	-0.0121027725
229	0xbe1da4e4	-0.15394932
230	0x3e0e1353	0.13874559
231	0x3e478ad6	0.19486555
232	0x3e16080a	0.14651504
233	0x3e229e72	0.15880755
234	0x3e669597	0.22518001
235	0x3e4de5cc	0.20107192
236	0xbd937cb4	-0.072015196
237	0x3cb79016	0.022407573
238	0x3e4f17ee	0.20223972
239	0x3d34aa32	0.044107623
240	0xbe5dd855	-0.21664555
241	0xbdbd47e6	-0.09242229
242	0xbd3d3c7d	-0.046200264
243	0xbd8bd673	-0.06828012
244	0x3e2a70ae	0.16644546
245	0xbdb88de1	-0.09011436
246	0xbdd3809a	-0.10327263
247	0xbe055c53	-0.130235
248	0x3dc36bb1	0.09542025
249	0xbcb9f9c7	-0.02270211
250	0x3e75fbff	0.2402191
251	0x3dc9818c	0.09839162
252	0xbb6343c4	-0.0034677843
253	0xbd6cc411	-0.05780417
254	0x3e0e1d04	0.13878256
255	0x3d24a2f3	0.040194463

bias f4 [16]
0	0xbd935e77	-0.07195752
1	0x3dfd28f3	0.12361326
2	0x3d38eccd	0.045147706
3	0x3e108239	0.14112176
4	0xbe671896	-0.22567973
5	0xbdd58169	-0.10425074
6	0xbd8737a9	-0.06602413
7	0x3d1a99d8	0.037744373
8	0x3d065b13	0.0328017
9	0x3d81c999	0.0633728
10	0x3e4c3b5b	0.19944517
11	0xbdf71059	-0.12063665
12	0xbe314edb	-0.17315237
13	0xbe601d59	-0.21886195
14	0x3de8d698	0.113690555
15	0xbc147e52	-0.00906332

weight f4 [16, 16]
0	0x3e0280dd	0.1274447
1	0x3c228b71	0.009920941
2	0xbdc68453	-0.096932076
3	0xbe63f2f0	-0.22260642
4	0x3e2f787f	0.1713581
5	0x3c2b69b4	0.010462213
6	0x3ce52d80	0.027975798
7	0x3d518f66	0.051162146
8	0xbd19bf77	-0.03753611
9	0xbdc1e450	-0.09467375
10	0xbdce498c	-0.10072622
11	0x3db40ab7	0.08791106
12	0x3d9fca23	0.078022264
13	0xbe4eccae	-0.20195267
14	0x3df06558	0.1173808
15	0x3da8fee7	0.08251744
16	0xbddbb223	-0.10727336
17	0x3e452d48	0.19255555
18	0xbddd2bd5	-0.10799376
19	0x3d0b9896	0.034081064
20	0x3d62a1d6	0.05533012
21	0xbe88de55	-0.26732126
22	0xbd4760ed	-0.04867642
23	0xbd6f134b	-0.05836801
24	0xbe07f3eb	-0.13276641
25	0x3e3cb2c1	0.18427564
26	0x3e417383	0.1889172
27	0xbd1510c0	-0.036392927
28	0xbe49bdba	-0.19701281
29	0xbe5abd92	-0.21361378
30	0xbe60bab2	-0.21946219
31	0x3e3acfb2	0.18243292
32	0xbcc0a94b	-0.023518225
33	0x3e14a6bf	0.14516734
34	0xbc9aabb5	-0.018880704
35	0x3d4e6289	0.05038694
36	0x3e5afc77	0.2138537
37	0xbdd6e315	-0.10492531
38	0xbe1e13f0	-0.15437293
39	0xbe5ee661	-0.2176757
40	0x3e32dc88	0.17466938
41	0xbe786c22	-0.2426
42	0x3dc435b2	0.09580554
43	0xbd89e588	-0.06733233
44	0xbc59c5bf	-0.013291775
45	0x3e539e8c	0.2066595
46	0xbe5f403c	-0.21801847
47	0xbe71dca5	-0.23619325
48	0x3e1b48e9	0.15164532
49	0xb9dc6b57	-0.00042041644
50	0xbe378d55	-0.17925008
51	0x3e54e45c	0.20790237
52	0xbd4aa5c9	-0.04947451
53	0x3e5bfafe	0.21482465
54	0xbe1d075c	-0.15334839
55	0x3db74db3	0.08950367
56	0xbd8e4680	-0.069470406
57	0x3e345461	0.17610313
58	0xbe43c0e4	-0.1911655
59	0xbd9f1b83	-0.07768919
60	0x3e6a7c73	0.22899036
61	0xbe3ed6de	-0.18636653
62	0x3e297135	0.16547091
63	0x3e7c77a6	0.24655017
64	0xbd8592ae	-0.065221176
65	0x3dd9c282	0.106328025
66	0x3d2e007b	0.042480927
67	0x3e48ca2c	0.19608372
68	0xbe4664f7	-0.19374453
69	0xbe3f7c81	-0.18699838
70	0x3e8ebfd6	0.27880734
71	0x3e05b2c7	0.1305648
72	0xbd8d00a8	-0.06884891
73	0xbe0f71e6	-0.14008293
74	0x3e3ba287	0.18323718
75	0xbc8b8d44	-0.017035134
76	0x3e5a9a3e	0.21347901
77	0xbd9185cf	-0.071056
78	0xbe62d5d6	-0.22151884
79	0x3e4667c4	0.19375521
80	0x3e95f389	0.29287365
81	0x3d00219b	0.03128205
82	0x3d388319	0.0450469
83	0x3e24b979	0.16086377
84	0xbe38ff98	-0.18066251
85	0xbe8c4896	-0.2739913
86	0x3e3328ce	0.17496035
87	0xbdb8eb07	-0.09029203
88	0x3ca2b65e	0.01986235
89	0x3e88f609	0.2675021
90	0xbdab193f	-0.08354425
91	0xbe190ea2	-0.14946988
92	0x3e4cdaa6	0.20005283
93	0xbbc07240	-0.0058729947
94	0x3df61a7f	0.120167725
95	0x3e86e6cf	0.26347968
96	0x3dfcbb9b	0.123404704
97	0x3cab8fc7	0.020942582
98	0xbdcfd8de	-0.10148786
99	0xbde64d7e	-0.11245249
100	0xbd00e106	-0.0314646
101	0x3c8ec577	0.017428143
102	0x3de8a956	0.11360423
103	0x3e4a05e7	0.19728814
104	0xbe2984c5	-0.16554554
105	0xbe1ceea9	-0.15325417
106	0xbb388717	-0.0028156692
107	0xbd15b240	-0.036546946
108	0x3d7c941e	0.061664693
109	0x3e5355e6	0.20638236
110	0x3e021298	0.12702405
111	0xbd5e4e5a	-0.05427394
112	0x3e3c08d3	0.18362741
113	0x3e01eced	0.12688036
114	0xbcbafd00	-0.022825718
115	0xbc05db12	-0.008169906
116	0x3d80d483	0.062905334
117	0xbda5c697	-0.08094519
118	0xbdeb624c	-0.11493358
119	0x3d650bff	0.055919643
120	0x3e57d84b	0.21078603
121	0xbdbd6c39	-0.092491575
122	0xbdb28a3a	-0.08717771
123	0x3d68deb6	0.05685302
124	0xbd8942ea	-0.06702216
125	0xbe1eeab6	-0.15519223
126	0x3d91f095	0.071259655
127	0xbcf6a698	-0.030108735
128	0xbd324ed3	-0.043532204
129	0x3e367433	0.17817764
130	0xbe4c8f55	-0.19976552
131	0x3e1313b8	0.14362991
132	0xbbead332	-0.0071662897
133	0xbd37c803	-0.04486848
134	0xbe0baf6f	-0.13641141
135	0x3e199e44	0.1500178
136	0x3dce116e	0.10061918
137	0x3e339a89	0.17539419
138	0xbe443c48	-0.1916362
139	0x3e8234de	0.2543096
140	0x3e0adbb6	0.13560376
141	0x3e3f4b4f	0.18681072
142	0x3e15671f	0.14590119
143	0x3d4d6a31	0.0501501
144	0xbd03aa4a	-0.032144822
145	0x3e1d81d8	0.15381563
146	0xbd8ffbfd	-0.07030485
147	0x3e0e22f2	0.13880518
148	0x3d9acb54	0.07558313
149	0x3db61def	0.08892428
150	0xbdceaf85	-0.100920714
151	0x3e0d0312	0.13770702
152	0xbd52bd5b	-0.051450115
153	0x3dd0c83d	0.101944424
154	0x3e4c2929	0.19937576
155	0xbd2afef0	-0.041747034
156	0x3d08c9df	0.033395644
157	0x3e3c44ea	0.18385664
158	0x3e773ee3	0.24145083
159	0xbc99c6b2	-0.018771503
160	0xbc155a78	-0.009115808
161	0xbc30899c	-0.010774996
162	0xbe933028	-0.28747678
163	0xbdc2614e	-0.09491216
164	0xbe42abdf	-0.19010876
165	0xbe3e16ba	-0.18563357
166	0x3d7c876f	0.061652597
167	0xbe4ac634	-0.19802171
168	0xbe0c32f7	-0.13691317
169	0xbe7d739a	-0.2475113
170	0x3e25b709	0.16183104
171	0xbd699615	-0.057027895
172	0x3e27e733	0.16396789
173	0xbe632e51	-0.22185637
174	0x3dfd5f80	0.12371731
175	0x3e082f04	0.13299185
176	0x3e93239e	0.2873811
177	0xbe789246	-0.24274549
178	0xbe2d7cd9	-0.16942157
179	0x3e828619	0.25492933
180	0xbd98a87f	-0.07454013
181	0xbd96c7d8	-0.07362336
182	0x3e3113cb	0.17292707
183	0xbe3d9f53	-0.18517809
184	0x3e3c7fcd	0.18408127
185	0x3e3dbef6	0.18529877
186	0xbde7087c	-0.11280915
187	0x3e0da876	0.13833794
188	0xbce25be0	-0.0276317
189	0x3e3d8d1d	0.18510862
190	0xbe62edff	-0.22161101
191	0x3e175b9f	0.14781044
192	0x3e4b2a80	0.19840431
193	0x3c5fb00d	0.013652814
194	0xbe02bc41	-0.12767126
195	0x3d1fbdf9	0.03899953
196	0x3d00f641	0.031484846
197	0x3c808692	0.015689168
198	0xbc1c4fa3	-0.009540471
199	0xbe88c127	-0.26709864
200	0xbc0ff7d2	-0.008787112
201	0xbcd489cb	-0.025944611
202	0x3e2e8ce3	0.17045932
203	0xbd0879e0	-0.033319354
204	0x3e34c592	0.17653492
205	0x3e3a009e	0.18164298
206	0x3e1729fe	0.14762112
207	0x3db1a830	0.08674657
208	0xbd610a36	-0.05494138
209	0xbca533c6	-0.020166289
210	0x3e354e73	0.17705707
211	0xbe23a054	-0.15979129
212	0xbdffdaa9	-0.12492878
213	0xbe73dd40	-0.23814869
214	0xbe042c8d	-0.1290762
215	0xbe0758e9	-0.1321751
216	0x3cd1e1db	0.025620392
217	0x3e3ee189	0.18640722
218	0x3e52378b	0.20529
219	0x3aca3a8d	0.0015428826
220	0xbe5428ae	-0.20718643
221	0xbd592f44	-0.05302359
222	0x3da0972d	0.078413345
223	0x3e588ec2	0.21148208
224	0x3e319a6a	0.1734406
225	0x3d43bfbd	0.047790278
226	0x3dc53624	0.09629467
227	0xbe08541b	-0.13313334
228	0x3d2af63e	0.04173874
229	0x3d3d2c6b	0.04618494
230	0x3e569585	0.20955475
231	0x3e75b0d4	0.23993236
232	0xbdf08752	-0.1174456
233	0xbca589b3	-0.020207262
234	0xbe0be13d	-0.1366014
235	0xbdb13aad	-0.0865377
236	0x3dd4426b	0.10364231
237	0x3d8343e0	0.064094305
238	0x3e56f204	0.20990759
239	0xbd790a59	-0.060800884
240	0x3c0d2f27	0.008617199
241	0x3cd68afc	0.02618932
242	0x3dae53f8	0.085121095
243	0xbe133d07	-0.14378749
244	0xbe561676	-0.20907006
245	0xbccaacb0	-0.024740547
246	0x3e4bee68	0.19915164
247	0x3e4d4ad7	0.2004808
248	0x3d7e938d	0.062152434
249	0xbe52a3cd	-0.20570298
250	0xbe76a2a4	-0.2408548
251	0x3d2405a1	0.04004443
252	0x3e512ef4	0.20428067
253	0xbc9bcb4d	-0.01901784
254	0x3e46f714	0.1943019
255	0x3d8f8423	0.07007625

bias f4 [16]
0	0xbe746034	-0.23864824
1	0x3c77a0fc	0.015114065
2	0xbe1dc586	-0.1540738
3	0xbe0961de	-0.1341624
4	0x3c59fd5d	0.013305035
5	0xbdac3d46	-0.084101245
6	0xbe2bc7fd	-0.16775508
7	0x3e6489ca	0.22318187
8	0x3e77b17a	0.24188796
9	0x3dd499c5	0.10380892
10	0xbddc7318	-0.1076414
11	0x3d8c6dc8	0.068568766
12	0xbe7b06b6	-0.24514279
13	0xbc8bb21b	-0.0170527
14	0xbdf774f0	-0.12082851
15	0x3e71c152	0.23608902

weight f4 [16, 16]
0	0xbda8f6b8	-0.08250183
1	0xbe776ae1	-0.24161865
2	0x3e1f81c2	0.15576842
3	0x3e584ae2	0.21122316
4	0x3df14e98	0.11782569
5	0x3e66c369	0.2253548
6	0xbd5b5fa0	-0.053557992
7	0x3e0c2fd7	0.13690124
8	0xbba5311c	-0.0050412547
9	0x3ca07025	0.019584725
10	0x3c21d16a	0.009876588
11	0x3da8fbd9	0.08251161
12	0x3d15d36a	0.036578573
13	0xbd885c8d	-0.06658278
14	0xbe6ed780	-0.23324394
15	0x3e7f98a9	0.24960579
16	0x3de31702	0.11088373
17	0xbe108f3a	-0.14117137
18	0x3e1ab574	0.15108281
19	0x3e32e87e	0.17471501
20	0x3e243296	0.16034922
21	0x3cdc781a	0.026912738
22	0xbdfe8733	-0.12428131
23	0x3e4dfbcb	0.20115583
24	0xbd8ff39c	-0.07028887
25	0xbe05aef5	-0.13055022
26	0x3e06e96a	0.13174978
27	0xbd64b8b9	-0.055840228
28	0x3e7da3c4	0.24769503
29	0x3e565154	0.20929462
30	0x3d864b69	0.06557352
31	0x3e6a82e3	0.22901492
32	0x3e1c4c57	0.15263496
33	0x3da3e99a	0.0800354
34	0xbc42f1f6	-0.011898508
35	0xbd9a1dc9	-0.07525212
36	0xbd344eea	-0.04402057
37	0x3c943afa	0.018094528
38	0xbd9a7e73	-0.075436495
39	0xbdc84164	-0.09778097
40	0x3e5a323c	0.21308225
41	0x3d8f9db4	0.07012501
42	0x3d1be5fa	0.03806112
43	0xbe75aca3	-0.23991637
44	0xbcf74558	-0.030184433
45	0x3dab3167	0.08359032
46	0xbe71aa35	-0.23600085
47	0x3e7d43be	0.24732873
48	0x3e77000b	0.2412111
49	0xbdfee916	-0.12446801
50	0xbcb729a8	-0.02235873
51	0x3e06801b	0.13134806
52	0x3dcd06ea	0.100110844
53	0xbe5210be	-0.20514199
54	0xbe56c237	-0.20972525
55	0x3de68cdc	0.112573355
56	0xbd9bce67	-0.076077275
57	0xbe3e0555	-0.18556722
58	0xbe11d3cd	-0.14240952
59	0xbe681523	-0.22664313
60	0xbe4625fa	-0.19350424
61	0x3dcbc637	0.09949916
62	0x3daa30e1	0.08310104
63	0xbe691e1c	-0.22765392
64	0x3e0f666f	0.14003919
65	0xbd897be9	-0.06713087
66	0x3cbbd10a	0.022926826
67	0xbe029f0e	-0.12755987
68	0x3e134f0b	0.14385621
69	0xbe267e00	-0.16259003
70	0xbe58ea23	-0.21183066
71	0xbe80bb33	-0.25142822
72	0xbd9f57a0	-0.07780385
73	0x3ccc843d	0.0249654
74	0xbe46a76b	-0.19399802
75	0xbd5ad167	-0.053422358
76	0xbe05cec1	-0.13067152
77	0xbe6cb8e7	-0.2311741
78	0x3d5d8b53	0.054087948
79	0x3e1f22f7	0.15540682
80	0xbd49ad96	-0.04923781
81	0xbcd5eb22	-0.026113097
82	0xbe240a9a	-0.16019669
83	0xbe114ffe	-0.14190671
84	0xbdb60f1b	-0.088896
85	0x3e08b40a	0.1334993
86	0xbe9081ab	-0.2822393
87	0x3e00f3f5	0.12593062
88	0x3e52b9ca	0.20578685
89	0xbe6bcb21	-0.23026706
90	0xbe6abf14	-0.22924453
91	0xbcaddf18	-0.021224543
92	0xbd7984cc	-0.06091766
93	0xbe07ea09	-0.13272871
94	0xbd0b8ca7	-0.034069683
95	0xbe2f96de	-0.17147395
96	0x3d8588ea	0.06520255
97	0xbe2f7043	-0.17132668
98	0x3cfc6502	0.030809883
99	0x3e82b428	0.25528073
100	0xbdc33dce	-0.09533273
101	0x3a9aeaf1	0.0011819286
102	0xbe4ec0f2	-0.2019079
103	0xbcaaf918	-0.02087073
104	0x3c86312c	0.016380869
105	0xbdfec2d1	-0.12439502
106	0xbe101d65	-0.14073713
107	0xbe59e884	-0.21280104
108	0xbc1e243d	-0.009652195
109	0xbd0f6af9	-0.035014126
110	0x3d6fc6d3	0.058539223
111	0x3e6b8db6	0.23003277
112	0xbcd24e0c	-0.025671981
113	0x3e5f695f	0.2181754
114	0xbcb64f01	-0.022254469
115	0xbe115805	-0.14193733
116	0x3e63a093	0.22229223
117	0xbd90b0e8	-0.07064992
118	0x3e5d98d2	0.21640328
119	0x3e784359	0.24244441
120	0x3c75bbff	0.014998435
121	0x3d9351b6	0.071933195
122	0x3e20819e	0.15674445
123	0xbda4efe7	-0.0805357
124	0x3e551972	0.20810488
125	0x3e45efc2	0.19329742
126	0xbe1b7bd2	-0.15183952
127	0x3e170f77	0.14751993
128	0x3e7852a7	0.2425028
129	0x3e3808e0	0.17972136
130	0x3de17d82	0.11010267
131	0x3dcdc545	0.10047392
132	0xbe41242d	-0.18861456
133	0x3e1aada3	0.151053
134	0x3e5ede24	0.21764427
135	0xbdd78d58	-0.10525006
136	0xbd9abb7d	-0.07555292
137	0x3e34635d	0.17616029
138	0x3e0c66af	0.13711046
139	0xbd9ebcb7	-0.07750838
140	0xbe667cb6	-0.22508511
141	0x3e237f60	0.15966558
142	0x3e514f9a	0.20440522
143	0x3dac64c8	0.0841766
144	0x3e4c89cf	0.19974445
145	0xbdac720c	-0.0842019
146	0x3dfa0e6b	0.12209781
147	0x3d98ba93	0.07457461
148	0xbde827d8	-0.113357246
149	0xbe885da6	-0.26633948
150	0x3d3b46d5	0.045721848
151	0xbe8eeaca	-0.27913505
152	0xbda0b9a3	-0.078479074
153	0xbe3f5841	-0.1868601
154	0x3d522e90	0.051313937
155	0x3e399003	0.18121342
156	0xbd23e13c	-0.040009722
157	0x3ded3998	0.11583251
158	0x3c21b100	0.00986886
159	0xbd8a724c	-0.06760082
160	0x3d002af0	0.03129095
161	0x3d7c50ba	0.061600424
162	0xbe55a452	-0.20863464
163	0x3e5b4364	0.21412426
164	0xbe1048e6	-0.14090309
165	0xbe52bcd6	-0.20579848
166	0x3d4db6e7	0.050223257
167	0xbe70b031	-0.23504712
168	0x3d1ee904	0.03879644
169	0xbe8098a4	-0.25116456
170	0xbe521cb5	-0.20518763
171	0x3e69871d	0.22805448
172	0x3db16bb4	0.08663121
173	0x3dfae27e	0.12250231
174	0xbe467230	-0.19379497
175	0xbe5787ec	-0.21047944
176	0xbd0cfde3	-0.034421813
177	0x3e72e49b	0.23720019
178	0x3e0799e8	0.13242304
179	0x3e17e107	0.14831935
180	0x3c7c020b	0.015381346
181	0x3d77b819	0.060478304
182	0x3e6270c4	0.22113329
183	0x3e097111	0.13422038
184	0x3e4afafe	0.19822308
185	0x3e7d0e41	0.24712469
186	0xbdfe204b	-0.12408503
187	0xbe4e28e3	-0.20132785
188	0x3d8b452e	0.06800304
189	0xbe1e3cc9	-0.15452875
190	0xbded2422	-0.115791574
191	0xbe0b4c94	-0.13603431
192	0xbe63b2b6	-0.22236142
193	0xbd3e0c7c	-0.046398625
194	0x3def268b	0.11677273
195	0xbe1e7470	-0.15474105
196	0x3db00955	0.0859553
197	0x3e42026a	0.18946233
198	0xbe33843f	-0.17530917
199	0x3e4d4a01	0.20047761
200	0xbde8c511	-0.113657124
201	0xbe2202c3	-0.15821366
202	0xbd3983ba	-0.04529164
203	0xbde47a96	-0.11156194
204	0xbe6b15fb	-0.22957604
205	0x3dc038d9	0.09385843
206	0xbdc505f3	-0.09620275
207	0xbe798b7a	-0.24369612
208	0xbc674cc6	-0.014117425
209	0x3e57d3a6	0.21076831
210	0x3e5d2f77	0.21600138
211	0xbd9a15c9	-0.075236864
212	0x3df39689	0.11893947
213	0xbdb2d111	-0.087312825
214	0xbe430099	-0.19043197
215	0xbe3e0bcb	-0.18559186
216	0x3debf191	0.115206845
217	0xbd5344da	-0.051579334
218	0xbe1297fb	-0.14315788
219	0x3e4c2ac6	0.19938192
220	0x3ce93b6d	0.02847072
221	0xbdeadbda	-0.114677146
222	0x3e45f482	0.19331554
223	0x3e39fca7	0.18162785
224	0xbccf4b21	-0.025304379
225	0xbe276755	-0.16348012
226	0xbdde54bd	-0.10856006
227	0x3e4c9901	0.19980241
228	0x3e5b5a7b	0.21421234
229	0x3e1cdd42	0.15318778
230	0x3e734d92	0.2376006
231	0xbdc08d17	-0.09401911
232	0x3d9a48ee	0.075334415
233	0x3da2ba3c	0.07945678
234	0x3dacfa02	0.08446123
235	0x3e1c0eac	0.15239972
236	0xbe28bb3d	-0.16477676
237	0x3d8295bc	0.06376216
238	0xbc6560e8	-0.014000155
239	0x3e2f693f	0.17129992
240	0xbe0a21ef	-0.13489507
241	0xbe40ade2	-0.18816331
242	0x3e3e8ec4	0.18609148
243	0xbd354886	-0.044258617
244	0xbd30365a	-0.043020584
245	0x3e21bf9f	0.15795754
246	0xbdb87de2	-0.09008385
247	0xbd82cbd5	-0.06386534
248	0x3e460589	0.19338049
249	0x3e276d36	0.16350254
250	0xbcde6d41	-0.027151706
251	0x3d7916ea	0.06081287
252	0xbd6dc00e	-0.058044486
253	0x3e592b6e	0.21207973
254	0xbde38cba	-0.11110826
255	0x3e3db13b	0.1852464

bias f4 [16]
0	0x3da632b7	0.08115142
1	0x3e01384c	0.12619132
2	0x3e477d01	0.19481279
3	0x3e2239b2	0.15842322
4	0xbc74bda8	-0.014937796
5	0xbe4fa630	-0.20278239
6	0x3cd91622	0.026499812
7	0x3e0533d5	0.13008054
8	0xbe4a9a87	-0.1978551
9	0xbcdc1a2e	-0.026867952
10	0xbe2bd4fe	-0.16780469
11	0xbe2e796f	-0.1703851
12	0xbd5a7a2f	-0.05333918
13	0x3c12b257	0.008953652
14	0x3c97ebb3	0.018545007
15	0x3d67bbff	0.05657577

weight f4 [16, 16]
0	0x3e4ce476	0.20009026
1	0xbe80f437	-0.2518632
2	0xbd64a39e	-0.0558201
3	0x3bf17b61	0.0073694442
4	0x3e2682ae	0.16260788
5	0x3c1cbf17	0.009567044
6	0xbe63c034	-0.22241288
7	0xbe7fe6b7	-0.24990354
8	0xbda533de	-0.080665335
9	0x3d4289a7	0.047494557
10	0xbe46e6e0	-0.1942401
11	0xbe10c8ab	-0.14139049
12	0xbe0a34ea	-0.13496748
13	0xbdae613e	-0.08514641
14	0x3e47e4fe	0.19520947
15	0x3dc37e9b	0.095456325
16	0x3cb04360	0.021516502
17	0x3e116ad2	0.14200905
18	0xbe1e2bcb	-0.15446393
19	0xbe7052f1	-0.2346914
20	0x3c813ef9	0.015777098
21	0x3e11b215	0.14228089
22	0x3e053ae4	0.13010746
23	0x3e03c7a5	0.12869127
24	0xbe6e8506	-0.23292932
25	0xbe1ae980	-0.15128136
26	0xbdd189d6	-0.10231368
27	0x3df61845	0.12016348
28	0xbe597cbc	-0.21238989
29	0x3d4b497e	0.049630634
30	0xbe823f73	-0.25439033
31	0x3e19fd64	0.15038067
32	0x3cba6ad2	0.022756014
33	0xbe87d970	-0.2653308
34	0x3e50461e	0.20339248
35	0xbdfb5964	-0.12272909
36	0xbe4dbc62	-0.20091394
37	0x3a6f3d47	0.00091262575
38	0xbde05427	-0.10953551
39	0x3de970df	0.113984816
40	0x3e73fd3c	0.2382707
41	0xbd93e03a	-0.07220502
42	0xbd75cfe7	-0.060012724
43	0xbadb8897	-0.0016749081
44	0x3e60c95a	0.2195181
45	0xbd9098ba	-0.0706038
46	0x3d95fd80	0.07323742
47	0xbb40b1ed	-0.0029402927
48	0x3c3800e0	0.011230677
49	0xbd1ecf42	-0.038771875
50	0x3cdb7bb4	0.026792385
51	0xbe81ac4f	-0.25326774
52	0x3bd827df	0.00659655
53	0x3e378bea	0.17924467
54	0xbdc9afd4	-0.0984799
55	0x3d254fba	0.040359236
56	0x3db3dfb9	0.08782906
57	0xbcbf1aed	-0.023328269
58	0x3d3e5fa8	0.046477944
59	0xbe68d996	-0.22739252
60	0x3d5abf54	0.05340512
61	0xbe0cefa3	-0.13763289
62	0x3dc65e4c	0.096859545
63	0xbd9dd2e9	-0.077062435
64	0x3cce0703	0.025149828
65	0x3dcf6bfc	0.10128018
66	0x3e0fce84	0.14043623
67	0x3dac8ea4	0.08425644
68	0x3d3f26b0	0.046667755
69	0xbd622ba1	-0.05521739
70	0xbd832d8a	-0.0640517
71	0x3d387075	0.045029122
72	0xbe2337a3	-0.15939192
73	0xbd215342	-0.03938604
74	0x3d51cc73	0.05122037
75	0x3e7b9981	0.24570276
76	0xbe763347	-0.24042998
77	0xbe51640b	-0.2044832
78	0xbe3e2c83	-0.18571667
79	0x3e1db482	0.1540089
80	0xbd1bca92	-0.038034983
81	0x3d7daa28	0.06192985
82	0x3e67685e	0.22598407
83	0x3d03dfd0	0.032195866
84	0x39fe1365	0.00048461105
85	0x3d55c19d	0.052186597
86	0xbe4a26f1	-0.19741417
87	0xbe298331	-0.16553952
88	0x3d6417b4	0.055686668
89	0x3e421e7b	0.1895694
90	0x3dfc6751	0.123243935
91	0xbdc4fad9	-0.09618158
92	0xbdd10195	-0.1020538
93	0xbe22bce8	-0.15892375
94	0xbd9badd3	-0.07601514
95	0x3b1c174e	0.0023817602
96	0x3dc99e54	0.09844652
97	0x3e6bcbe9	0.23027004
98	0xbd839140	-0.064241886
99	0x3e4f0bca	0.20219341
100	0xbdf002ee	-0.11719309
101	0xbdebb1ea	-0.11508544
102	0x3d78c10c	0.06073098
103	0x3e75693d	0.23965926
104	0x3e74d8cf	0.23910831
105	0xbe3c34c0	-0.18379498
106	0x3c88abf6	0.01668356
107	0x3e4cbadd	0.19993158
108	0x3e30d027	0.17266904
109	0xbd179209	-0.037004504
110	0xbe6e079e	-0.23245093
111	0x3dfe6954	0.124224335
112	0xbd328ad8	-0.043589443
113	0x3dcffb9d	0.10155413
114	0xbe11860c	-0.14211291
115	0xbd642048	-0.05569485
116	0x3d44866e	0.047979765
117	0xbd193c7a	-0.03741119
118	0x3e8d6c05	0.27621475
119	0x3deda553	0.11603799
120	0x3e110192	0.14160755
121	0xbe7e9d75	-0.24864753
122	0xbe638955	-0.22220357
123	0x3c274d78	0.010211341
124	0x3d2acecb	0.04170112
125	0xbd6ad9ca	-0.057336606
126	0x3dc7e2cc	0.09760055
127	0xbce3f846	-0.027828347
128	0x3cf34d5b	0.029699972
129	0x3d6be20a	0.057588615
130	0x3da6f6bf	0.08152532
131	0x3b93a02b	0.0045051775
132	0xbe217ad5	-0.15769513
133	0x3daa39a9	0.08311779
134	0xbe7dcad1	-0.247844
135	0x3e202a63	0.15641169
136	0xbd001f1f	-0.03127968
137	0xbd4e7eb6	-0.05041381
138	0x3dd39d6c	0.1033276
139	0xbdf40318	-0.119146526
140	0x3e739f49	0.23791231
141	0x3e87b54f	0.26505515
142	0xbe39f6e4	-0.18160588
143	0xbdc7b73f	-0.09751748
144	0x3dcf1730	0.101118445
145	0xbe3f5295	-0.18683846
146	0x3e5a852b	0.21339862
147	0xbd6abfb8	-0.057311743
148	0xbe00383d	-0.12521453
149	0xbe1594be	-0.14607522
150	0xbe80a151	-0.25123075
151	0x3daf94a7	0.08573275
152	0xbcdf0be7	-0.027227355
153	0x3e529897	0.20566021
154	0xbe393b53	-0.18089037
155	0x3d1e4712	0.038641997
156	0xbc04faee	-0.008116467
157	0x3bfcd07e	0.007715284
158	0xbe2ee12e	-0.17078087
159	0xbe1f674f	-0.15566753
160	0xbe054cc7	-0.1301757
161	0xbd8028ef	-0.062578075
162	0x3b8ffa28	0.0043938346
163	0xbd3f0191	-0.046632353
164	0xbe3a4167	-0.18189012
165	0x3e56dfad	0.20983763
166	0xbbbb7997	-0.0057212817
167	0xbe3d3bf9	-0.18479909
168	0xbcbeae1f	-0.023276387
169	0xbe3e76a4	-0.18599945
170	0xbe092178	-0.13391674
171	0xbe797a00	-0.24362946
172	0x3e4260a5	0.1898218
173	0x3e32a18a	0.17444435
174	0x3d3601d5	0.04443534
175	0xbc495013	-0.012287158
176	0x3e8477fe	0.25872797
177	0x3e31b98c	0.17355937
178	0x3defc465	0.11707381
179	0x3e1013f8	0.14070117
180	0xbe62f17b	-0.2216243
181	0xbde68f6b	-0.112578236
182	0x3e2e6b05	0.17033012
183	0x3e03aa18	0.12857854
184	0xbe7ba2fb	-0.24573891
185	0xbdba51dd	-0.090976454
186	0x3cc398b9	0.023876535
187	0x3e0caf67	0.13738786
188	0xbb8b87db	-0.0042581386
189	0xbe27cd95	-0.16387017
190	0xbd39290b	-0.045205157
191	0xbdeae602	-0.11469652
192	0x3df1907b	0.117951356
193	0xbe2d4c49	-0.16923632
194	0xbdb51d75	-0.08843509
195	0xbd9493f6	-0.07254784
196	0x3e5f3a64	0.21799618
197	0xbe519127	-0.20465527
198	0xbe00e235	-0.12586291
199	0xbe24ef10	-0.1610682
200	0xbe27d8a1	-0.16391231
201	0x3d26b6f0	0.040701807
202	0xbe611674	-0.21981221
203	0xbc48be0b	-0.012252341
204	0x3e052f35	0.1300629
205	0x3e23bd80	0.15990257
206	0xbdbb254d	-0.09137974
207	0xbdaf23c1	-0.085517414
208	0x3e53867c	0.2065677
209	0x3e227d7c	0.15868181
210	0x3e7b1fb2	0.2452381
211	0xbd979584	-0.07401565
212	0xbd97ed83	-0.07418349
213	0xbe7dd422	-0.24787953
214	0x3e898a19	0.26863173
215	0xbe1ab566	-0.1510826
216	0x3dd8cdf2	0.10586156
217	0x3df423bb	0.119208775
218	0x3cc87d9d	0.02447396
219	0xbe7c9756	-0.24667105
220	0x3dfc950d	0.12333117
221	0xbdecb6e2	-0.1155832
222	0xbe0b5f26	-0.13610515
223	0xbe0d7319	-0.13813438
224	0x3acea45b	0.0015765534
225	0x3db10d9d	0.08645175
226	0xbd91bacc	-0.07115707
227	0x3e44352d	0.1916091
228	0xbd0595bd	-0.032613505
229	0x3de44cd2	0.11147465
230	0xbd416d6f	-0.047223505
231	0x3dbbfa1f	0.09178566
232	0x3e76cf51	0.24102522
233	0x3e5cb338	0.21552742
234	0xbe14fe9b	-0.1455025
235	0x3c0ffe50	0.00878866
236	0xbd47e981	-0.04880667
237	0xbe320d06	-0.1738778
238	0xbdbfe625	-0.093700685
239	0x3d6b55f2	0.05745501
240	0xbe448ee9	-0.19195141
241	0x3dd66775	0.104689516
242	0xbc0dd231	-0.008656071
243	0x3de53c23	0.11193111
244	0xbe94a645	-0.29033104
245	0x3e54155f	0.20711277
246	0x3d93dcca	0.072198465
247	0xbc9b146a	-0.018930633
248	0xbe1ecd8e	-0.155081
249	0xbe5584b6	-0.20851406
250	0xbd9b758e	-0.07590781
251	0xbdb54664	-0.088513166
252	0xbde68986	-0.11256699
253	0x3dad8da2	0.0847428
254	0xbe7b7321	-0.24555637
255	0xbe3d4885	-0.18484695

bias f4 [16]
0	0x3deb6ca4	0.11495331
1	0x3e58b774	0.21163732
2	0x3d821a80	0.06352711
3	0x3df91376	0.12161915
4	0x3e34734b	0.17622106
5	0xbdd785e7	-0.10523587
6	0x3c879cbc	0.016554229
7	0x3e4bab04	0.19889456
8	0x3e477ad0	0.19480443
9	0xbdc953f9	-0.0983047
10	0x3e2f1a57	0.17099892
11	0x3d76bae0	0.06023681
12	0x3e3f659d	0.18691106
13	0xbe409b26	-0.18809184
14	0xbddd128d	-0.10794554
15	0x3c26adac	0.010173243

weight f4 [16]
0	0x3f7c164f	0.9847154
1	0x3f7e1424	0.9924948
2	0x3f811c2e	1.0086725
3	0x3f84aacc	1.0364623
4	0x3f7a1549	0.9768873
5	0x3f7b6bda	0.98211443
6	0x3f7ace3d	0.97970945
7	0x3f7de87a	0.99182856
8	0x3f7f8fe7	0.9982895
9	0x3f82d4d0	1.0221195
10	0x3f7d52fc	0.9895475
11	0x3f7c87ec	0.986449
12	0x3f803fbe	1.0019453
13	0x3f800007	1.0000008
14	0x3f755b08	0.9584203
15	0x3f830ac9	1.0237666

bias f4 [16]
0	0xbc919ca8	-0.017774895
1	0xbc0f5727	-0.008748806
2	0x3cc4d867	0.02402897
3	0xbc0fafb2	-0.008769916
4	0x3befa1ea	0.007313003
5	0x3b8267b4	0.0039796475
6	0x3c09393a	0.00837546
7	0xbc5720e7	-0.013130403
8	0xbbecbeae	-0.007224879
9	0x3c973cf1	0.018461676
10	0xbccdc8ec	-0.025120221
11	0xbc241b02	-0.010016205
12	0xbb8ae2a8	-0.0042384453
13	0x3b4c86ef	0.0031208356
14	0x3b24eb24	0.0025164569
15	0x3a987f17	0.0011634555

running_mean f4 [16]
0	0x3e937abb	0.28804573
1	0x3ddab717	0.10679453
2	0xbdda28ac	-0.10652289
3	0x3d8393e9	0.06424696
4	0x3ecf5f1f	0.4050226
5	0xbe1a3d9c	-0.15062565
6	0x3e7cee6f	0.2470033
7	0x3e11d0dc	0.1423983
8	0x3e0c22fb	0.13685219
9	0xbe3c25d1	-0.18373801
10	0x3e486722	0.19570592
11	0x3e52fc24	0.20603997
12	0x3de88aa2	0.11354567
13	0xbdd97bf7	-0.106193475
14	0xbe83f129	-0.25769928
15	0xbdd1b18d	-0.10238943

running_var f4 [16]
0	0x3fbe448c	1.4864669
1	0x3f0e905c	0.55689025
2	0x3f2abd0f	0.6669473
3	0x3fb65a3e	1.424629
4	0x3eed2958	0.46320605
5	0x3f550f55	0.8322652
6	0x3f17b5b2	0.5926162
7	0x3f6eef58	0.9333396
8	0x3f26fec9	0.6523252
9	0x3f65c7ab	0.89757794
10	0x3f485d45	0.7826732
11	0x3f438577	0.76375526
12	0x3f973356	1.1812541
13	0x3f552e40	0.83273697
14	0x3ec0624f	0.37575004
15	0x3f7e6ec7	0.9938778
